JST/model_100rb.npz (npz, 123816 bytes, 5 tensors)

Wxh f8 [100, 26]
0	0xbfd334fc90128d30	-0.30010904378487435
1	0xbfcdac3098ae14c7	-0.2318173165805659
2	0xbfc53018025f14c2	-0.16553020587722328
3	0x3fd265b1d0b8e44b	0.28745694525747884
4	0x3fb406e918fabe37	0.07823044643259257
5	0xbfd8d177d907521a	-0.38778492159079436
6	0xbfe0715129ba0cef	-0.5138326468444613
7	0x3fb347e4d73fea60	0.07531576399916551
8	0x3fd6bb1208cdc6d5	0.35516787395236565
9	0x3fdaa5e0871df282	0.41637433238046395
10	0xbfb5660824b0909a	-0.08358813186402117
11	0x3f94ed00e47c94f9	0.020435346551626463
12	0x3f8c85e44627b6b8	0.013927253142323223
13	0x3fd374958e625679	0.3039907350988425
14	0xbfdb48f68d603142	-0.42632831388688797
15	0xbfdb95d249e572d9	-0.4310193750041385
16	0xbfbf42c09f99ae43	-0.12211231132976601
17	0x3fd3284ee8037407	0.29933521897857
18	0x3fd1442b6ca0ac63	0.2697857437912658
19	0x3fd1c6b8d4dc4df5	0.2777540281979037
20	0x3fbdd9f7d54ea788	0.1166071792382849
21	0x3fce2040cfbeb230	0.2353592886332918
22	0xbfcf4931b3f803d4	-0.24442120826282
23	0x3fb6e0c13d7f8d22	0.08936698676511814
24	0x3fb975c29dff613d	0.09945312840807659
25	0xbfc1466095f5d103	-0.1349602443912162
26	0xbfc5534bbf67fbc3	-0.16660448881154197
27	0x3fd01ddda2a2fee5	0.25182286150446337
28	0x3fb796a5f3956d7d	0.09214245983951304
29	0xbfdbd10a9358d3bf	-0.4346338690696107
30	0x3f801e65afaa89e0	0.007870478080182985
31	0x3fd050d33e3384fb	0.25493317674961674
32	0x3fd3271f86f52ad0	0.29926288775884036
33	0xbfd87e1ad3e905aa	-0.38269682592734944
34	0x3f5a71d0d7861e19	0.0016140498611053654
35	0x3fc7f0dc7de9524e	0.18703800342577143
36	0x3fe23fda45d51f2c	0.5702945102611685
37	0xbfda4aa47bcccad1	-0.4108058175071792
38	0x3f90953e7b72caf5	0.016194320950215297
39	0xbf9201cca67d0737	-0.017584989225049
40	0x3fbff146577ba8c9	0.12477531085793027
41	0x3f8a318f7a5d4c83	0.012789841577307342
42	0xbfb84c0ed690a32d	-0.09491055239108155
43	0xbfc22996ab7a3b1b	-0.14189418194697442
44	0xbfba757324c21f12	-0.1033546414129172
45	0x3f94d50ce6e5e708	0.02034397277154823
46	0xbfeb665951e4c95e	-0.8562437629209787
47	0x3fcfe3f9509ac4b2	0.2491447108818981
48	0x3fa1531ba049147e	0.03383718806848267
49	0x3fe0d000ceed0096	0.5253910104293193
50	0xbfc140e77488a588	-0.1347932166111543
51	0xbfd806a9897525ba	-0.37540663169474053
52	0xbfbd418fe7409f23	-0.11428164859591709
53	0x3fcc1c27e76b1373	0.2196092491123199
54	0x3fcbbeeab2f9419e	0.21676381815860862
55	0xbfd8af3bf494354b	-0.3856954468218034
56	0xbfd55055dc655cc9	-0.33302828333894446
57	0x3fd348d186ee3fd4	0.30131948639700323
58	0xbfdb18b1cda19c78	-0.4233822353475669
59	0x3fbd6916686b768f	0.11488475846587164
60	0xbf7969ad034b3e02	-0.006204295951377061
61	0x3fcaea4ea46720b5	0.21027548816187439
62	0xbfd0c08f67dc235b	-0.2617529405838945
63	0x3fca07e6b0878580	0.2033661233863704
64	0x3f689ecedc638b51	0.003005413079436727
65	0xbfb96c52e1cc1400	-0.09930913937212438
66	0xbfa30d7a6429ed46	-0.037212204672835855
67	0x3f91ffb0336c2d23	0.017576935900291645
68	0xbfa07d7a3ac539a9	-0.03220731704151387
69	0xbfd38cfbe5f1600f	-0.30547997908934205
70	0xbfd4336a908993db	-0.31563819994908976
71	0x3fd9abb47ce79e3c	0.4011050433896093
72	0x3fb27230bafc04ee	0.07205490651178412
73	0xbfc73d1efe815c01	-0.18155276705758186
74	0xbfaf607c245cc3ac	-0.061282996596112
75	0x3fba1ac6e5b7a4e1	0.10197108372053122
76	0xbfbb90aa54a2ff61	-0.10767616812063131
77	0x3fd7e72679001b88	0.37348329369017863
78	0x3fd48753aa6e8107	0.32075969356266437
79	0xbfd808e433fdb233	-0.37554268910642746
80	0xbfd76fb1bcc2ff86	-0.3661922782302941
81	0x3fb8595f244a16f7	0.09511370311710353
82	0xbfc1a46d91e9c646	-0.13783044457118104
83	0xbfd7eea0e18dc084	-0.37393972422342636
84	0xbfa7f10d52a2df97	-0.046760956132344926
85	0xbfb880c7b4d88fc4	-0.09571502843078777
86	0xbfc2da0f459f214f	-0.14727965259067807
87	0xbfb8db04177abf2a	-0.09709191869000891
88	0xbfc3fe7d82ac0c81	-0.15620392685386622
89	0x3fd7d389f1e8f75e	0.3722863066103538
90	0xbf997d92992f13d7	-0.02489308414421373
91	0x3fa70a8235bf8ee3	0.04500204950434552
92	0x3fc953b77e15c577	0.19786733299728684
93	0xbfa3d2ec650e2d4d	-0.038718592964040434
94	0xbfb3e4b298f289b8	-0.07770839914386485
95	0x3fabd5529b812819	0.05436189792870056
96	0x3fc440b1211be5bd	0.15822424046181807
97	0x3fc441704226fae5	0.15824702482310396
98	0x3fb0a2d7f5c76c31	0.06498479605163322
99	0xbfc3565e7c71ff77	-0.1510732753413284
100	0x3fd51ab2f821a3d0	0.3297545836599598
101	0x3fc4cbd7d0af2f07	0.16247079553283347
102	0xbf68e318b8114c3e	-0.0030379755776635256
103	0xbfc874d0dbfcc204	-0.19106493703431238
104	0xbfcc6b5dc12244d2	-0.2220265572582663
105	0xbfb77661ef63cf2b	-0.09165012449721803
106	0x3fd76ef1a41883dc	0.36614647889115104
107	0xbfddd3cb6b8a7aee	-0.4660519170956111
108	0x3fd60c71f05fe906	0.34450958704077583
109	0x3fd23ee4b960e087	0.28508871177064815
110	0x3fda0ab270f688f0	0.4069028952745972
111	0xbfdcf26c30e9a816	-0.45229630257256426
112	0x3f91054c82ad067e	0.016621776080916188
113	0x3fdf94117bf6fafa	0.4934123716920308
114	0x3fd2d53475b6b612	0.29426299567680403
115	0xbfdbbb6d219d3e7f	-0.43331459314956783
116	0x3f6fbc8466003380	0.0038740716845552803
117	0xbfccf06c29de862b	-0.22608711285015323
118	0xbfcb379d8fb63417	-0.21263474957632475
119	0x3f90c56e50a88697	0.01637813918399064
120	0xbfd712fdc2833cb0	-0.3605341338670298
121	0xbfb5ef462497e611	-0.08568228143112601
122	0xbf8f15a183254324	-0.015177976431603186
123	0xbfd1d5c74745ca89	-0.27867299995629274
124	0xbfd4b43f26d5794f	-0.3235013846623546
125	0x3fb7f41efc7f58a9	0.09356874145973627
126	0x3faf57d3affb090c	0.06121694110108153
127	0xbfb7945d1c9cd079	-0.09210760067509395
128	0xbfbc6599dc5c02ad	-0.11092530851238776
129	0xbfc7510084b76e5c	-0.18215948562907414
130	0x3fa424a49294116f	0.039342062847967145
131	0x3fd13e60c9579fde	0.26943225538570725
132	0xbfd86023d5aa138b	-0.38086791864071107
133	0x3fd129995eabb555	0.2681640076178458
134	0xbfd265127479a44a	-0.2874189507916226
135	0x3fd1e4a46c281c2f	0.2795802170007304
136	0xbfdc2ae3069b5663	-0.44011760373300585
137	0x3fd2cf76b8583312	0.2939125824203056
138	0x3f9e772f1fc1b838	0.029751526177669713
139	0x3facab1222d9ad55	0.055992666963755745
140	0xbfd4f066e3c8ccd3	-0.3271729683357993
141	0xbfd1c205d7f97927	-0.27746721354732745
142	0x3f7c44f7fedd8aa1	0.0069017112089989905
143	0xbfbca9657fe771e8	-0.11195978520067451
144	0xbff071ad1fa020d0	-1.0277529940959091
145	0xbfdc89e936996329	-0.4459174187846196
146	0x3fb3006fce53be34	0.07422541415484646
147	0xbfc1b1660bb5e3d1	-0.13822627612878916
148	0x3fc022267ac6985d	0.1260421847811725
149	0xbfd2f267ff1efc2a	-0.2960453025261268
150	0xbf44cbe25fee3b28	-0.0006346564622264671
151	0x3fdc97b8d2fa543b	0.44676037410073705
152	0x3fb053cb8faae24b	0.063778612685277
153	0xbf8a21c2ce5ced61	-0.012759706423472296
154	0xbfd2f46ecc11bdb0	-0.29616899422304765
155	0x3faafb86ada7086e	0.05270024175435216
156	0xbfd2a31e81eaecaf	-0.2912060040213857
157	0x3fe65c7d4b919ab1	0.698790214152572
158	0x3fc2673d2b21313b	0.1437756023973494
159	0xbfd1f701574ec259	-0.2807010033239173
160	0xbfc02248ed088507	-0.12604629110231988
161	0x3fea1ad918d36d84	0.8157773480301533
162	0x3fdd1181a0ec8c7c	0.45419350352512544
163	0xbfc629a70a8af966	-0.17314613356388547
164	0xbfe91662bbb2ad65	-0.7839826265311954
165	0xbfd6961af6d80037	-0.35291170221171647
166	0xbfd00a2b133ae61f	-0.2506206214708033
167	0xbfdbf4ac9eb6b6f7	-0.4368087339342845
168	0x3f7581dce4f00e83	0.005250800007164383
169	0x3fdd16114144047a	0.45447188733675825
170	0x3f9dbf665b8ebd8c	0.029050444925528704
171	0xbfccd81472571f25	-0.22534423430465114
172	0xbff44b702e6ab03c	-1.268417531314312
173	0xbfb1f6ee61a8bd11	-0.07017412075287079
174	0xbfdf4fd6e654c47b	-0.48924801343225227
175	0xbfeef525e81e698a	-0.9674253018923065
176	0x3fd8f0238f618502	0.3896569156841708
177	0x3feccd290e5b0090	0.9000439911251465
178	0x3fd8691f2606ef1b	0.38141611779768575
179	0x3ff7a9d3038ad750	1.478961004102036
180	0x3fe6b44bb53c8c46	0.7095087566161815
181	0xbfe557c708952105	-0.6669650237681998
182	0x3fd2f6aefd6ac58b	0.29630636928330806
183	0x3ff249b03dd6f41f	1.1429903426753822
184	0x3fdafd7dd947cc63	0.4217218992118374
185	0x3fac6f94983b16b3	0.05553879125868146
186	0xbfdc2de43450fac0	-0.4403009901906607
187	0xbfd70ea7900c5870	-0.3602694422455732
188	0xbf9f1536be16391a	-0.030354361869791104
189	0x3fe4452ebeb23886	0.6334451412710826
190	0xbfe4a7d729b06a00	-0.645488339828546
191	0xbfe204db9f65d7c7	-0.5630930054892297
192	0x3fc1df81b35ebb9a	0.13963338144591547
193	0x3fd66cbda6daccee	0.3503870133819892
194	0x3f7294f0d345a2df	0.00453657219291223
195	0x3fe1d7e422398f4b	0.5576038998083076
196	0xbfdeb636074b6464	-0.47987127983430455
197	0xbfdc96c323713799	-0.4467017980685966
198	0xbfeba640c6a0892a	-0.8640445594249162
199	0xbfdde0bf50cca3d5	-0.46684248819889024
200	0xbf810857a0a54f85	-0.008316692914980947
201	0x3fd0fa77cfbffc1a	0.26528735435562256
202	0x3fd20d1b1f1a6f42	0.2820499233000541
203	0x3fe6f4fd49e577ef	0.7174059336937243
204	0x3fd171ede7d148b1	0.2725786937563824
205	0x3fd2ebc068553ed3	0.29563913525360624
206	0xbfdd675d1d483f02	-0.459433821292791
207	0xbf888e85c7b2c7a1	-0.011990590245065937
208	0xbfc83cb0ee325dd5	-0.1893521464414635
209	0xbfd31c8abf25de11	-0.29861706415928874
210	0x3fb81e0ab7e5aade	0.09420840253521187
211	0x3fa71b19c4321500	0.04512863655058119
212	0x3fb91dd0059e1384	0.0981111539568485
213	0x3fd7cf77f95d5843	0.37203788139357047
214	0x3fd693f2380221cd	0.35277991742671305
215	0x3fb7788659ef7d3f	0.09168281264964138
216	0x3fb63efaf753e5d3	0.08689850366854239
217	0x3fb7ae02b2619152	0.09249894003875639
218	0xbfc9e16a44f2a390	-0.20219162336914254
219	0xbfcb99303fce92e3	-0.21561244121144005
220	0x3f6d76cd86951f9a	0.0035966886686402246
221	0x3fcba364a761b84c	0.21592386410651654
222	0x3fbe11ac5a0a8999	0.11745717237730559
223	0x3fb7b1bee598680a	0.09255593400340004
224	0xbfd2b7fa8e77ae4f	-0.29247917092172754
225	0x3fdb59216f302151	0.42731510027126257
226	0x3f8a745c69c1fd5e	0.012917253472777442
227	0xbfa3ff4686ed7a47	-0.039056972475681344
228	0xbfb2fcb3cd3084f9	-0.0741684318495749
229	0x3fbc19f559f7a99b	0.1097710938117075
230	0xbfc68c22de7bcc36	-0.1761516176553372
231	0xbfba9962dd6e0c91	-0.1039029875374118
232	0xbfd2e9cde77bfdb1	-0.2955202828015571
233	0xbfd29f65fe6d3220	-0.2909789070734252
234	0x3fbede88d5bb10f8	0.12058310716662735
235	0x3fcb3e641b52809d	0.21284152349563082
236	0xbf6ae26f311674e2	-0.003281800433525648
237	0x3fda3e758fd8b09f	0.4100622086286964
238	0xbfd5051826be6cf1	-0.3284359339101704
239	0xbf9e973d9fd217e8	-0.02987381256072999
240	0xbfd351ee19440454	-0.3018756148085846
241	0x3fd85b28681bd15f	0.3805638329206626
242	0xbfcd5fe8e275b705	-0.2294894319306239
243	0xbfddf9a7dba2afb6	-0.46836277436045337
244	0xbfcc2a8b9c4da35a	-0.22004838115688125
245	0x3fb11b040ab9fe68	0.06681847822073339
246	0xbf7e297afd2f56cc	-0.007363777566714535
247	0x3fb3cc99434ba3ca	0.07734067814784776
248	0xbf70a95340de2a7d	-0.0040677311025186765
249	0x3fce65840ca8f95e	0.23747301691214323
250	0x3fd6161279fabebe	0.34509717857416067
251	0x3fd3e4f5168d7273	0.31084944918055796
252	0x3fd3714795700323	0.30378903954992803
253	0xbfa00f5a0faf61cd	-0.031367124952967985
254	0x3fc5c3473d7da900	0.17002192022784612
255	0x3fda7d1a3b34874c	0.4138856485534361

Whh f8 [100, 100]
0	0x3f7e382718021d10	0.0073777701474064955
1	0xbfcd6d93bb275334	-0.22990652693138147
2	0xbfb06b8365a56a0b	-0.06414052230449145
3	0xbf6e735f1a2d1fef	-0.0037171227899399566
4	0x3fa5ba944d66777a	0.04243911213710212
5	0xbfb346a1e78bfe86	-0.07529651549338653
6	0xbfc77b59c3128f0b	-0.18345186257385424
7	0x3f8f3cc5e8548a7f	0.015252634194046209
8	0xbfcef7a612169ff2	-0.24193263896199785
9	0x3fce8c5f58b23312	0.2386588271223436
10	0xbfcafd3f4300ee4d	-0.21085348865186618
11	0xbf68a1d846c83805	-0.0030068611288305313
12	0x3fd58536cb40929f	0.3362557396779184
13	0xbfc7b50d9b247296	-0.1852128036051865
14	0xbfc380b5fba8e36d	-0.15236544406959798
15	0x3fd90692b2921314	0.39102618635688313
16	0xbf9047be5a95feb0	-0.015898679999280574
17	0x3fa054a01da38ea8	0.03189564096262859
18	0x3fb2facc70e0b163	0.07413938289454829
19	0x3fde44a32bf6736c	0.4729392937968473
20	0xbf811476b5e8d7b6	-0.008339812685431141
21	0xbfd469f702219fdc	-0.3189675827802583
22	0x3fd71d0e40e89bf9	0.3611484178422298
23	0xbfd705d515815187	-0.35973097896683054
24	0x3fad8da03389c385	0.057721144000317394
25	0x3fc4f52d64c20260	0.16373221797768434
26	0x3fca8050e0e85c92	0.2070408914739557
27	0x3fb0beb382320004	0.06540986946674826
28	0x3fc0f256b9ee85af	0.13239559248635888
29	0xbfd27064bb1c68c4	-0.2881099536185838
30	0x3fd811a856198e39	0.37607773216425106
31	0xbf97aadedfbf890b	-0.02311275711679976
32	0xbfcc7fdff5e9671d	-0.2226524306050174
33	0x3fcc765208c3abe0	0.22236085346170764
34	0x3f902e84a85c936a	0.01580245282743268
35	0xbfa91c2853975caf	-0.04904294987107371
36	0x3fd75170f1a75efd	0.3643457755947422
37	0x3f9494be4b314912	0.02009866079272011
38	0xbf9e75d5e9c07c79	-0.029746382133563707
39	0xbfb248cead078fec	-0.07142345165590286
40	0xbfc4d3010afe7379	-0.16268933331312121
41	0xbfbe4454b8d9d728	-0.1182301474853743
42	0xbfa1cffc7b37f022	-0.0347899341977327
43	0x3f9158394a7ae64d	0.016938109560874094
44	0x3fb066dd0f6c2842	0.06406957270169847
45	0x3fb43436e8a9d83c	0.07892172985325002
46	0x3fa65b284a73811c	0.04366422566249836
47	0x3fc3a40e0995b1b4	0.15344405620579737
48	0xbfc6abc8aad3d381	-0.1771174272650136
49	0x3fc653852a378d5c	0.17442383347870816
50	0x3fbfdac5c9c2788e	0.1244319551064754
51	0xbfca69bfb64b9dfb	-0.2063521995653302
52	0xbfcaf3f0998c8a48	-0.2105694532156852
53	0x3fd1b6ab03e1e22d	0.2767741716302535
54	0xbfcf5d73456a0ea4	-0.24503937615746907
55	0xbfc6c11902421a58	-0.17776787386192683
56	0x3fb0228b3e2af606	0.06302709834832151
57	0x3fd4a91f779e6517	0.32282244378582575
58	0x3fccd4db0411f2b6	0.22524583529220416
59	0xbfd57cb3d7f9cb30	-0.3357362374437569
60	0xbfb13be4e7d850fb	-0.06732016239431353
61	0xbfc3e5645c4bd654	-0.1554379892983656
62	0xbfb21bc3f0e5e29a	-0.07073616629885252
63	0xbfd59e56bd96928a	-0.3377892352530486
64	0xbfce14f02e0b7627	-0.2350139832332598
65	0xbf98704a33086d27	-0.023865851750184987
66	0xbf70dd8531a225f1	-0.004117508209796381
67	0xbfc857c0687ec065	-0.19017796613980234
68	0xbfc259881d106e36	-0.14335729045056816
69	0xbfb66dd440c88afe	-0.08761335927605882
70	0x3fd5a959fa0a8fce	0.33846139352885707
71	0xbfb1256e571dc1a4	-0.06697740198956709
72	0x3fc1ec7ab1bb9e9d	0.14002927473415108
73	0x3fb48d18ed30353a	0.0802779749939945
74	0x3fa58fdfd7fba92a	0.04211329947959748
75	0xbf8fc10e40b72640	-0.015504943227727996
76	0x3fd4991c1004ac7e	0.3218450695446292
77	0xbfb04705d44594b0	-0.06358372147004121
78	0xbfa5e1d21ee4c523	-0.0427385008537249
79	0xbf9bd7b027e405f3	-0.02718997233842475
80	0xbfc985fdb5e4b1fa	-0.19940158254156853
81	0x3fd0604051d63815	0.2558747100055155
82	0x3fb4a054fa306320	0.08057147129182995
83	0xbfb4f8935d393934	-0.08191796327557627
84	0xbfde4da6b6b030ad	-0.47348945465706543
85	0x3fb26b6e4c85e00c	0.07195176475750048
86	0x3fc8465d5daebf63	0.18964736055704198
87	0xbfa222b1f1b37bda	-0.03542095256283746
88	0x3f8f28fcd8ae27b0	0.015214896547849438
89	0x3f9a8fd930c372c7	0.025939363099370973
90	0xbfc593cad8167369	-0.16857276488454012
91	0x3faf28ba058a5b38	0.06085759465820789
92	0x3fc382162d77a15c	0.1524074289329843
93	0xbfbb9eed9e6555ae	-0.10789380185209183
94	0x3fe114dcc466d626	0.5337966762514881
95	0x3f9aedf22ba031d4	0.0262983168723155
96	0xbfc4de6d74f64555	-0.1630379506209844
97	0x3fbac41bc113d7b8	0.10455487693601995
98	0xbfe1f3d28175470f	-0.5610134628752536
99	0x3fde4d4f46300e32	0.47346860746640396
100	0xbfd08baece4eaa24	-0.25852556369014423
101	0x3fc0f8e30f2ceb85	0.13259542695035634
102	0x3fb5a9e3fcad85d5	0.08462357443706676
103	0x3fbc3238bf4710a4	0.1101413218485186
104	0x3fc1935456177e44	0.1373086376543019
105	0xbf809b411b522320	-0.00810862412096608
106	0x3fb0404f3110821f	0.063481282690653
107	0xbfd56dfb13a34a1b	-0.33483769338377706
108	0xbfda122f75807205	-0.4073599479177406
109	0x3f3302d51cdfb189	0.00029008582066471965
110	0xbfd8a63cd18fbac5	-0.3851463362215493
111	0xbfc7d634652c0507	-0.18622450771366791
112	0x3fd0b134eaeeaf93	0.26081583922017976
113	0x3fc0597d68b1762c	0.1277310143658935
114	0x3fd50da71276b97b	0.32895829012968364
115	0xbfc8a73d5d8d68c7	-0.1926037508772593
116	0x3f9cc35d36afb578	0.028089004957953162
117	0xbfb0033b2d1cf827	-0.06254930354495568
118	0xbf8f2cc0ee8dd533	-0.015222079544154532
119	0xbfd152d7bf0f1023	-0.2706813207444176
120	0xbfb1ade1cb48bb27	-0.06905947888365614
121	0x3fb6b0ac05620f42	0.08863330012723927
122	0xbfc96072108729d2	-0.1982557850554501
123	0x3fb533a7256622c4	0.08281941092549078
124	0x3fcfd6c47dc77de8	0.24874168531003638
125	0x3fcf8f5965d1c36d	0.2465621707119924
126	0xbfcf2e03498c7970	-0.243591700470414
127	0x3fb83ff7eb4de3b8	0.09472608084423839
128	0x3fc090628b0ef325	0.1294062785144884
129	0x3fbb0f9ba01a0280	0.10570690783243641
130	0xbfd2da4205b4b598	-0.29457140500275036
131	0x3fd8d4404b0996ff	0.3879547817981432
132	0xbfd2128136264453	-0.28237943923983727
133	0xbfcfe7c416c82fde	-0.24926043617631327
134	0x3fbaa02618001b58	0.10400617681453406
135	0x3fd026f008f2a545	0.25237656472980446
136	0xbfc80aa712f4dad8	-0.18782509255989654
137	0x3fae5865190aedfd	0.05926814966866443
138	0x3fd1e3a7deb12b46	0.2795200037696087
139	0x3fba3e2176345b1a	0.10251053939678592
140	0x3f5c0974dcc76b85	0.0017112389788198356
141	0xbfc660ee92f456d5	-0.17483312774191143
142	0x3fb5b7f6ddd7f1ff	0.0848383227930256
143	0x3fa2a9b605c6a4f9	0.036451042370865445
144	0x3f814453db7ef5f6	0.008431105743393435
145	0xbfb6789efbcc1f1d	-0.08777803084751352
146	0x3fbf77ee1c2b333d	0.12292373836244237
147	0x3f7a8c1b7b59612d	0.006481273032101148
148	0x3fb1551fcd0295fe	0.06770514254693435
149	0x3fbfe83ad9b8f13d	0.12463729682435072
150	0x3fb2ab80c342a5ad	0.07292942778680951
151	0x3fbb4cc084ed644c	0.10663989301009841
152	0x3fb7da1dc490eaf8	0.09317194031693166
153	0xbfc8d3634b981885	-0.1939510459052977
154	0x3fcebd16fe77fc82	0.240145563366216
155	0xbfb02c6457a1a1fb	-0.06317736758649765
156	0x3fc363a0100f5e07	0.15147782119923667
157	0xbfd590a6d2fcd93f	-0.33695383648172944
158	0xbfcf606df705ec79	-0.2451302963416742
159	0x3fc08d89da8c2060	0.12931941195734264
160	0xbfa1ea0fccddb730	-0.03498887420469854
161	0x3fb5340b1e7c9de6	0.08282536978060015
162	0x3fc4262ed0f47fc9	0.15741524889835848
163	0x3f57a07134e736f6	0.001442060998317838
164	0xbfcde3651cc67e6d	-0.23350204377219388
165	0xbfd6d5b956747a00	-0.35679467623586447
166	0x3fd2cecf84e49b4c	0.29387271859961994
167	0x3fd4f907418ea134	0.3276994838911549
168	0xbfd196bce0ba626e	-0.27482530542469064
169	0x3fbef8861762f5ae	0.12097967215500802
170	0x3fa91623bc50d410	0.04899703668380806
171	0xbfb63042d0496ce6	-0.08667390427710905
172	0xbfb7926e70c83a06	-0.09207811597318746
173	0xbfc9a1b638d790fa	-0.20024755263796817
174	0x3fbb0c0600a69d31	0.10565221324815323
175	0x3fac238549c82697	0.054958501106807826
176	0xbfba9feb50e8a81d	-0.10400267339051124
177	0x3fc1499d93e66161	0.1350590679328532
178	0xbf949149b9c018f0	-0.02008547970037794
179	0x3fc3e15a3cdf870d	0.15531471226045604
180	0x3fcf7d8b655375f2	0.24601881454047675
181	0x3fc51052798823fe	0.16456061300439723
182	0xbfb7368ba86f9e3c	-0.09067604887206299
183	0x3fc56c26dcaa2ae8	0.1673630311455192
184	0xbfd1735a41359125	-0.272665561371712
185	0xbfa7c27532f60eb7	-0.04640547034344194
186	0xbfb6daa3ceabd967	-0.08927367969213194
187	0xbfd0a3fff62a0e5a	-0.2600097564647733
188	0x3fa71ac21714844c	0.04512602359523807
189	0x3fab5ee824600215	0.053458456459342475
190	0x3facfce2cffdb94c	0.05661686696008647
191	0xbfa7b9781385cb76	-0.046336891539701705
192	0xbfd55afc63e637be	-0.33367833858289575
193	0x3fd02355d8d77bb6	0.25215669799757323
194	0xbfb37e169a383cf6	-0.07614270463112746
195	0x3fae75beb7a79954	0.05949207298162898
196	0x3fb4572f7d1e3c92	0.07945534519807243
197	0x3fc8e4e8f74e36f3	0.19448577952828536
198	0x3fd3fbb1dcddd68e	0.3122372300052597
199	0xbfab07d8d174eb4f	-0.05279424244732544
200	0xbfa012844eb1036a	-0.031391272169009124
201	0x3fd7e01316614430	0.3730514257959525
202	0xbfbde6cb5e486ba2	-0.11680289317921091
203	0xbfc19f7fc0adb42a	-0.13768002422458042
204	0x3fcbd3aa58731a7e	0.21739701575116394
205	0x3fc23137265027c9	0.14212693567998105
206	0x3fdb9451a932b18d	0.4309276726078444
207	0xbfb8af5b2cf986b7	-0.09642572258010317
208	0x3fce51d301407147	0.2368720775711017
209	0xbfd48e4d36953109	-0.3211854012522655
210	0xbfadcb716794c883	-0.058192771810710496
211	0xbfc18067cb005a20	-0.13673112308670543
212	0xbfd17e34c68074d6	-0.2733280123228047
213	0x3fc45620e9659fad	0.15887843509994806
214	0x3fd739be17cdc600	0.3628993256052979
215	0xbfe02d8eac192bf9	-0.5055611954970792
216	0xbfc070765e40a6b6	-0.12843207933592787
217	0x3fb132bda915d840	0.06718049409923399
218	0x3fd3dd38556ecc29	0.3103772005371775
219	0xbfd12dbc15107634	-0.2684164243417826
220	0xbfd00f48c68e9fa2	-0.2509328784021766
221	0x3fcc06e67ad970fe	0.2189605808115473
222	0x3fbba514562ebbc4	0.1079876623541472
223	0x3fa9db719ec871fc	0.050502348549546355
224	0xbfa5a1d8c654e267	-0.04225041791000166
225	0xbfce5a86acf9895c	-0.23713763662369558
226	0xbfd4585fe6a18668	-0.3178939583068314
227	0x3fc6638805c5b522	0.17491245538568828
228	0x3fc73818858a0885	0.1813994075819815
229	0x3faf2accc4a7d004	0.060873412137794985
230	0xbfb2afb6709c0d24	-0.07299366235024657
231	0x3fc254ca1701f813	0.14321256755278053
232	0xbfd3c7743c9af15f	-0.3090487090919591
233	0xbfd213b2ca90dea4	-0.282452295130023
234	0x3fc42e0c32ea898a	0.15765526281490977
235	0xbfcf3bf06f2577b7	-0.2440166990954233
236	0x3fba30318cd374f8	0.10229787529120304
237	0xbfb5e4908f561da8	-0.0855188703482016
238	0xbfd2152394844d36	-0.28254022124857003
239	0xbfc8631c0acc4e3f	-0.1905245831227251
240	0xbf845748828913cb	-0.009932104571939512
241	0x3fd5351357768536	0.33136447469049146
242	0x3fb308d5de80e6c6	0.07435356790747524
243	0xbfc27c89bcaee083	-0.14442559922258988
244	0xbfd4647a01ce3613	-0.31863260437316504
245	0xbfb429c4c38e7733	-0.07876233839348572
246	0xbfd025f286f3e56f	-0.2523161237619069
247	0xbfa9eac3ef39826e	-0.050619242622592306
248	0xbf7cdfa7365a7e47	-0.007049229786985806
249	0x3fa9fdcadab28820	0.05076440734525556
250	0x3fdb6721f8650d33	0.4281697202424823
251	0x3fbef0891644c5ec	0.12085778039615719
252	0x3fd0d75c4a899da0	0.26314456252154095
253	0xbfcf5b8d48e1ded1	-0.24498144205767017
254	0x3fcbfb4d9c9a69ca	0.21860666414870727
255	0x3fa9d3fa3895d68e	0.05044538441408718

Why f8 [26, 100]
0	0x3fcd05961f028d51	0.22673298372419962
1	0x3fbd9d3a052d08dc	0.11568033815732143
2	0xbfb48b5ae8d7ad4b	-0.08025139031058363
3	0x3f90f54ff2f2ca34	0.016560792163270402
4	0xbf9abdd81b84e30b	-0.02611482303584282
5	0x3fc6c8cd3dc0b310	0.17800298228521472
6	0x3fd14d31d26fa13a	0.27033658552547346
7	0x3fdcb5e95523c5bb	0.4486029941027387
8	0x3fc4d0b8e6744146	0.16261969807284
9	0x3fb2ffdcc9d15ae0	0.0742166512221547
10	0xbfbc828f132027f9	-0.11136717049535595
11	0x3fa0f73ab6dbe707	0.033136210271505866
12	0x3fe57434fd11894f	0.6704354231590431
13	0xbfc6421a14803a85	-0.17389226914425052
14	0x3fd6b3993319643d	0.3547118186011778
15	0x3fcff8c378d49cd8	0.24977916145255707
16	0xbfd4a00132c419c3	-0.3222659106981178
17	0x3fd767dd35cf877f	0.36571436171481503
18	0xbfd02b8c97b148c2	-0.2526580315944892
19	0x3fc6652f6574bb20	0.17496292547135628
20	0xbfbab822d22f2d02	-0.10437219268276368
21	0x3f9cc47bd02b8115	0.02809327562397453
22	0x3fe3fef10c974b4f	0.6248708005826787
23	0x3fb0bdf8fadc0973	0.06539875149250012
24	0xbfa8ef8e7238dc6b	-0.048702670519951884
25	0xbfdac2cbfc0f6c06	-0.4181394540334512
26	0x3fc090e284ae0451	0.12942153433326323
27	0xbfcaed0705c93840	-0.21035850317497484
28	0x3fc712ed2603d0bc	0.18026508670994257
29	0xbfcbfdc98f0c66e8	-0.21868247494494786
30	0x3fc84045dfc423d9	0.1894614546402227
31	0x3fc1bee3ee861110	0.13863801142373022
32	0xbfc78abef77d2177	-0.18392169079221407
33	0x3fcc04e1c01079c5	0.21889898183958514
34	0x3f95844a2de4440d	0.021012457896237225
35	0x3fb69fd3a37897ba	0.08837626210205843
36	0xbfc71d67772c9fcc	-0.18058484381731288
37	0x3fd77ee0c9d341dc	0.3671190234136057
38	0x3fa62a1104d8bad0	0.04328969177401165
39	0x3fc3aa8798404da6	0.15364165243282207
40	0x3fe2976a085c0925	0.5809831774970787
41	0x3fc48c7091192442	0.1605358799445487
42	0xbfdab620360e9600	-0.4173660781765136
43	0xbfdeb98f5eb6c10c	-0.48007568597223904
44	0xbfb671643e656693	-0.08766771815626333
45	0x3fc6d133ee4e145a	0.17825936447130425
46	0x3feaf9cf0caf02b6	0.8429942367293595
47	0x3fd8287347267bc9	0.37746889065050176
48	0xbf9a6731aa8cb7dd	-0.025784278902555847
49	0xbfe1f83ae30411f1	-0.5615515169052384
50	0xbfeb538a58a8740d	-0.8539478046037644
51	0x3fdcc35b66051e5f	0.44942364657297235
52	0xbf9ebb84657df15d	-0.030012196249559298
53	0x3fd10947c21f433a	0.2661914249156784
54	0x3fc52298ef22eb87	0.16511832882482855
55	0x3fbca74c8a459538	0.11192777992035452
56	0xbfc3a8d8bac28588	-0.15359028929837515
57	0xbfad001b8571b4aa	-0.056641445197649645
58	0x3fdf106a349686ec	0.4853768838457728
59	0x3fba4b710201d595	0.1027136449718767
60	0x3fc9960d43379160	0.19989171773989778
61	0xbfb783bccadb6816	-0.09185390427174442
62	0xbfd310ac5016d82c	-0.29789264508451896
63	0x3fd37d1e02951b09	0.30451154949371123
64	0x3fd43b95b8afc6e5	0.3161367705898626
65	0xbfd5d8751a81457a	-0.3413365134084284
66	0xbfa9b471f14548a0	-0.050204811765653945
67	0x3f989f2f91f199d7	0.02404474571485501
68	0xbfb8e7a59f51c1fc	-0.09728465213425602
69	0xbf9023e218ef5576	-0.01576188351812876
70	0x3fc99f69da784021	0.20017741363017286
71	0xbfe1f1a0c17bcffd	-0.5607455996491805
72	0xbfc5cf27bb76ca58	-0.1703843751289067
73	0x3fcf5fb7b0138627	0.24510856721376337
74	0x3fe19e059ea84c23	0.5505397890832494
75	0xbfd8542e77b606ef	-0.3801380318692357
76	0xbfe2ccd499b477b4	-0.5875037195253214
77	0xbfc9e8610e2ccc34	-0.20240414802683093
78	0x3fe452279f3d69a7	0.6350286588815849
79	0xbfde0d5029aeefcc	-0.4695625693382197
80	0x3fdcf0b32302c322	0.45219114703199825
81	0xbfbb243d82b2e7d3	-0.10602173272027864
82	0xbfb26af8495436a7	-0.071944730665758
83	0x3fcd528bfbe02e7e	0.22908162878626465
84	0x3fd563163f4388e0	0.3341727845965021
85	0x3fcb9440e6c1b44e	0.21546183841147343
86	0xbfb4dd8c76a99756	-0.08150556466133926
87	0x3fbe769114b16213	0.1189966846008093
88	0x3fb45e49dc5a7ddd	0.07956372861598689
89	0x3fc69c61b7ed79e4	0.17664739113656858
90	0xbfc1ed662fd6e608	-0.14005734764013789
91	0xbfc60702850a2b94	-0.17208892341690485
92	0xbfb9b2960c959469	-0.100381258079851
93	0xbf9f8e12100c1bf7	-0.030815393666696136
94	0x3fc7ea9f5df29228	0.18684761130602223
95	0x3fab6a94233558a0	0.05354750566282118
96	0x3fc227ab83f04fdf	0.1418356317741418
97	0xbfc61c1528e08d32	-0.17273201461748894
98	0x3fe13607d600a149	0.5378455333457534
99	0x3fb9f4a6332154f6	0.10138930080696071
100	0xbfc0bcca65f41284	-0.13076143243974425
101	0x3fbe8cc685d3cc6e	0.1193355633475208
102	0xbfcb6487fd0bdbc3	-0.21400546890046543
103	0x3fd119cb6810c057	0.26719937479629635
104	0x3fd77e4543efe996	0.3670819438408669
105	0xbfc7d4681b8271a0	-0.18616963713874402
106	0x3fd65f3baca0467f	0.34956256731047824
107	0xbfd6a63d93d8ee4c	-0.3538965171644335
108	0x3fba8245f96b14c5	0.10355031337083449
109	0xbfd3c2f4bf9e996f	-0.3087741729053936
110	0xbf7546434d50d016	-0.005193961046689585
111	0xbfd41992eed0f782	-0.3140609104337885
112	0xbfbede3bdf5db32d	-0.12057851985236985
113	0x3fb00f824971bb5b	0.06273664753983381
114	0xbfdc8b1efa3337f3	-0.4459912722930987
115	0xbfe3f67166322f02	-0.6238333698288161
116	0xbfd5e1749f9ae31a	-0.3418857153551912
117	0x3fdb575ac6883fe2	0.42720670116341186
118	0x3fd472868ae04ac3	0.3194900852405846
119	0x3fc794dd1f4d09d6	0.1842304613911227
120	0xbfbe383bd9dce095	-0.11804555958667813
121	0xbfc2372d3ff4a534	-0.14230886099657314
122	0xbfe1d909eb44e6ca	-0.5577439875698584
123	0x3fcfd19baedb5c8d	0.24858423269208565
124	0xbfad225b02c80a04	-0.056902736749197685
125	0x3fe2d02986bab656	0.5879104262764467
126	0x3fb837b5d251b5d3	0.09460007080789205
127	0x3fd12e71b37bdec9	0.2684597256443167
128	0xbfe94bb8476a5cf4	-0.7904931444963084
129	0x3fe7e00aff95fead	0.7460989944374511
130	0x3fa83b6a8052101b	0.04732830826199593
131	0x3fbe7e06a13aaf0c	0.11911050258884986
132	0x3fd34ccd2cda8bc0	0.30156258945697445
133	0x3f5d53151e3324a1	0.0017898279409556477
134	0x3fb8b100f3ffc48d	0.09645086247452835
135	0xbfcf62aa79ad4615	-0.24519854489567253
136	0x3fd0c476dcfd78d7	0.2619912298304263
137	0xbfbc81b3acc292d4	-0.11135409324431161
138	0x3fcec682a51dfa79	0.24043305456503442
139	0x3fc592a94cd37dbf	0.16853824855114216
140	0x3fd48040dcc594d8	0.32032796439882594
141	0xbfb8fe7c8c4c0e0c	-0.09763315606328876
142	0xbfe55539ed3da88a	-0.6666535981760415
143	0xbfb6fbf641857573	-0.08978213405267414
144	0x3fc016f49f80b036	0.12570054805962777
145	0xbfc5e4c53602ad15	-0.17104401719311882
146	0xbfd2b153f772a501	-0.2920732418520658
147	0x3fa8d98145d74020	0.04853443124341106
148	0x3fd0bcec3f7b263c	0.2615309352810049
149	0x3fdca468afcc74c5	0.4475347248824842
150	0x3fc400fc6c844830	0.15628009127300535
151	0xbfc2ae657dcdfd51	-0.1459471573143483
152	0x3fe325b707e5591e	0.5983538774696944
153	0x3fbc90fefd14bee3	0.11158746412979385
154	0xbfbc6f5411ca00aa	-0.11107373651793986
155	0x3fc394c8370d32ba	0.15297796905578825
156	0x3f7940a5cc35397d	0.006165168425765419
157	0x3fb18d9938e4d113	0.06856687201508675
158	0x3fbd72b9e2103e44	0.11503183144690704
159	0x3faaee591c76766b	0.052599701618629556
160	0x3fc546eca4a63681	0.16622694053187462
161	0xbfe5a965bced1df8	-0.6769283952680203
162	0x3f88a2783d0181dc	0.01202863632369227
163	0xbfae1371922fd721	-0.05874209317691582
164	0x3fafea5ad7c4a852	0.06233486064805106
165	0x3fd8cb16df366a06	0.3873955898103819
166	0x3fa1d44c7bcec53b	0.034822836030239356
167	0xbfc440f80fe0d997	-0.1582326962977276
168	0xbfbd22140adffa90	-0.11380124345303444
169	0x3fa4e832eaa7cd51	0.040834036964862215
170	0x3fb3cc21209fe82c	0.07733351751804268
171	0x3fe7e0984f973415	0.7461663774971635
172	0x3fa9bd53a4a88ed8	0.050272573327928505
173	0x3fc2efdeec60ee99	0.1479452757065374
174	0xbfde8d05024e762c	-0.4773571512722323
175	0xbfe8bc70c01fcb6c	-0.7730029823709237
176	0xbfcc916a942c9ed9	-0.22318775401185212
177	0x3fc949dca523a743	0.19756658614579167
178	0x3fe52ddb28f1e9e9	0.6618476676661064
179	0x3fd87fe2f564dfa6	0.38280557598363385
180	0xbfc311a99b302bc7	-0.14897651746318116
181	0xbfc72163cff557d4	-0.18070647863595346
182	0x3fb4f19bb7780166	0.0818116496011548
183	0xbfca86f6b9b6fb9d	-0.20724376743416154
184	0xbfc777634b3beb89	-0.18333092855013103
185	0x3f9f1a2d1870502e	0.0303732916036809
186	0x3fb83f857cd36962	0.09471926019197022
187	0xbfc0bd3d94f668ea	-0.13077516339837497
188	0xbfcafd8d49501961	-0.21086278991442511
189	0x3f875558130534bf	0.011393249588446229
190	0xbfcb83fcc04b8f8c	-0.21496543301975313
191	0x3fb79ec88d5991b1	0.09226659251141346
192	0xbfb4c91f8bd59563	-0.0811938969032631
193	0x3f9d3c21583ff692	0.028549691211074597
194	0xbf83d12a9429732a	-0.009676296850722094
195	0xbfc306a9d17c7f60	-0.14864084938835287
196	0x3fa9b81a76e73388	0.05023272229627823
197	0xbf78885b54113673	-0.0059894149317877175
198	0xbfda7b45bc10421f	-0.41377395024849933
199	0x3fab8d2dc488f1df	0.05381148361309206
200	0x3fa9f302ec8baf9d	0.05068215501327631
201	0xbfc0792caf093e06	-0.12869795366940212
202	0xbf9df8e8975195ae	-0.02926982329917898
203	0x3fbfea52390bb4d7	0.12466920750349018
204	0xbfb7d78bc777d5d4	-0.0931327211363489
205	0xbfca0513a0ff43f2	-0.2032799278372575
206	0xbfd2c067b98ade2e	-0.2929934799135222
207	0xbfd491eb578f6286	-0.32140620756903393
208	0xbfc3543993fd0685	-0.15100784040446427
209	0x3fd1e9b1d3c5d25c	0.27988858872348543
210	0xbfd529ae2bc26d2a	-0.3306689669932036
211	0xbfb9eb662c6f736a	-0.10124815544936686
212	0xbfe2e8f3a751fa5e	-0.5909364955876517
213	0xbfd2f85396d85471	-0.29640664797745503
214	0x3fdc484f9033d9d7	0.4419135006168324
215	0x3fc9de61d940b848	0.2020990668110605
216	0x3fda011ee641526d	0.40631840215545517
217	0x3fd5ac2a4152f713	0.338633121293115
218	0x3f9803aab1207f46	0.02345148759934481
219	0x3f7500dd10b51730	0.005127776657280411
220	0xbfab86cf82018ea4	-0.05376289808262172
221	0x3fcc38102232dd89	0.22046090764864015
222	0x3fca4b2fb8c00c21	0.2054195072269929
223	0xbfb190b16306a13d	-0.06861408870338877
224	0xbfc1baa5feec66ae	-0.13850855777200394
225	0x3fc9c36875598cad	0.20127588014574851
226	0x3fc21ed241a694ad	0.14156559186554799
227	0xbfcf97eba0e529b0	-0.24682374340257018
228	0x3fc8348a74c43380	0.1891034193180552
229	0xbf94a112ba83e8ed	-0.020145695337284875
230	0xbfa76f0b06485a46	-0.04576906634990911
231	0x3f99a5a2508fbef3	0.025045906226238434
232	0xbfe10c1b8b6b3a5e	-0.5327279780411336
233	0x3fcf2215b4b8bcd0	0.24322768520639793
234	0x3fbbd911b711c5b6	0.10878096312969529
235	0x3f800bec5e3dfdeb	0.007835241914789534
236	0x3fdfd34f5f071f81	0.49727234153805716
237	0xbfd2e7035cf3426b	-0.2953499229161369
238	0xbfbff55f9f53eaf0	-0.12483785285796123
239	0x3fc3b8d26680b791	0.15407781605739193
240	0xbfed8a4ddc2f984d	-0.9231328297144131
241	0x3fb033a56acd054e	0.06328805787508893
242	0x3f9241f3c43c8679	0.017829712726899125
243	0xbfc83230697b1237	-0.18903165007044873
244	0x3fb94dd9cc76f990	0.09884415857138706
245	0xbfd0842d1545232f	-0.25806738927035416
246	0x3fc6fe8a979ba0ad	0.17964298632364742
247	0x3fc1225df45cb30b	0.13386129791015153
248	0x3fbc82c41453de81	0.1113703298213924
249	0x3fdd88788178643c	0.4614545120580862
250	0x3feaa1f020ece758	0.8322678225588147
251	0xbfa62122468d2340	-0.04322154151174695
252	0xbfaf46ba453da6a8	-0.06108648390984445
253	0x3fa5dd89589f0cb0	0.04270581442644905
254	0xbfd71aadeb2b30cb	-0.3610033794946161
255	0xbfd715c44a336bfa	-0.3607035374276958

bh f8 [100, 1]
0	0xbfc4adb12d182eac	-0.1615506620586208
1	0xbfc7fc1c541ab00f	-0.18738130671170025
2	0xbfa2d9eb2bec3283	-0.0368188372723113
3	0x3fc729d3b35a64f3	0.18096395738101698
4	0xbfcd7358f1a76f62	-0.23008262443078836
5	0xbfc61b1e967b72bc	-0.17270262096180555
6	0xbfd83269064bba2a	-0.3780767976267351
7	0x3fc1ee6b388c351d	0.14008846531979993
8	0x3fb65b591768ebd1	0.08733136006860255
9	0xbfc29d41c2b8501d	-0.14542409904299883
10	0xbfbbcc84ee9ff541	-0.10858946634103452
11	0x3fa5bbf32ae99abd	0.04244956873735848
12	0x3fd03636e6fd4b26	0.2533089881664402
13	0xbfcd03b46e9fe712	-0.2266755619200969
14	0xbfbc026de4543311	-0.10941206764637125
15	0x3fc327ee0a3edadc	0.1496560621287334
16	0x3fc6038d98a30cb7	0.17198343232130295
17	0xbfb8589170d9fb28	-0.09510144238627716
18	0xbfc02643444f9f5f	-0.12616768680095
19	0x3fa904bf2c4464da	0.04886433997507718
20	0xbfc0f87fbdac1d3d	-0.13258358727783018
21	0xbfc6761e24d9427d	-0.175479667656436
22	0xbfc13e583f47e336	-0.13471510972865425
23	0xbfd8adbd2849ff5c	-0.3856041806648045
24	0xbfcc9b1338e8072b	-0.22348251608496503
25	0x3f9a3c6b85c9ef48	0.025621109047718776
26	0x3fd33142e69cf66b	0.29988167305768937
27	0x3f8215847c53de60	0.008830103916337595
28	0x3fd1ba03f9c9c250	0.27697848695155347
29	0x3fc2e2dbd8fc02ff	0.1475481805319063
30	0xbf95611e8cb2534b	-0.02087829335922046
31	0xbfd07e8d1fc49a4f	-0.25772407629338984
32	0x3fc57640b21d11a9	0.16767128655386657
33	0x3fc3bb6c8157bc03	0.15415722194254053
34	0xbfb0baec77843d28	-0.06535222928890916
35	0x3fc56294b38711f2	0.16707094923016502
36	0xbfc80a4918766033	-0.1878138894505824
37	0x3fb2796fffdce95a	0.07216548916486457
38	0xbfc2684b3eab9a09	-0.1438077980048578
39	0x3fa6ca6863c1268c	0.04451299874979239
40	0xbfa58e75d7a9fe6c	-0.0421025110017553
41	0x3fae296d407bd58d	0.05890981113581537
42	0x3f8c368cc6a31219	0.013775920688552866
43	0x3fccb4b5f28a502c	0.2242648538855304
44	0xbfb0de98919f164d	-0.06589654498301308
45	0x3fc734a354282b55	0.18129388436531238
46	0xbfa0753b4585fe25	-0.03214440559076718
47	0xbfc92bbab93f622c	-0.19664701504986348
48	0xbfb621a6180378bd	-0.0864509400011881
49	0x3fc947007c5d3c42	0.1974793059584688
50	0x3fd077f18a755fc3	0.25732077142083315
51	0xbfc2e8b63b56215e	-0.14772680184638437
52	0xbfc45d2a909acdb2	-0.15909320889259743
53	0x3fc3070db21102cd	0.14865275568629102
54	0xbfb8bc9486381696	-0.09662750508149495
55	0x3f92eb65ff8a891e	0.01847609874915534
56	0x3fc4cbe3827b5e8c	0.16247218962847787
57	0x3fbcf0b9565f60e3	0.11304815634446501
58	0x3fd7735a85f1ff79	0.36641562538715494
59	0xbfc27d5c686a1cf4	-0.14445071314205615
60	0xbfc5dd69930b8b5f	-0.17081947021423624
61	0xbfd186b0eca74782	-0.27384589300810813
62	0xbfbd73e776ec09bb	-0.11504980710382189
63	0xbfc9c2702c64c4b1	-0.20124628226907285
64	0xbfb0f2ff33476e06	-0.06620783807687056
65	0x3fd14caba3bbe781	0.27030459394119793
66	0xbfd7e199f129f30e	-0.37314461280020417
67	0xbfc35bd57d6c3c57	-0.15124004959258983
68	0x3f3f65aaac9b21fb	0.0004790822682534665
69	0xbfd9e1ad84ec9bf6	-0.40439928036579376
70	0x3fa8669d79963349	0.04765789136135951
71	0xbfd24fa5867f7fad	-0.28611124167036445
72	0x3fd02ccaa43ae5fc	0.2527338603791518
73	0xbfaf1d02f016e895	-0.060768214996145854
74	0xbfbfc59122f62fda	-0.12410838225895252
75	0xbf8ed3a4fa917502	-0.0150521172492355
76	0x3faa5602fd4649c2	0.05143746701937203
77	0x3fc11cc3484b8387	0.13369027166393385
78	0xbfd52fa8ec3ad63d	-0.33103392667121395
79	0x3f9d391c1423c6d6	0.02853816864894195
80	0xbfc2814273c3220e	-0.1445696892972283
81	0x3fc462ad8735f9ac	0.15926140882579654
82	0xbfb8c714bc79fe04	-0.09678773499944532
83	0x3fc98db457cceed2	0.1996369770730469
84	0xbfc55284a086d7df	-0.1665807517835551
85	0xbfb818a03e52f919	-0.09412576219162751
86	0x3fbc4b516ba68d38	0.11052426222027101
87	0x3fc0f0c59e6cdbe0	0.13234777675253806
88	0xbfbd17903a8f09d0	-0.11364079885155509
89	0xbfc051c10f1c61b0	-0.12749493825755343
90	0x3fd344d8eb6d323f	0.3010771082961447
91	0x3fb7702a35a36b27	0.091555250258733
92	0xbfb2fe7724fedaf1	-0.07419533398829593
93	0x3fbaa632c51db863	0.10409848511128099
94	0xbfc837602c907f3b	-0.18918993164060702
95	0xbfb059576aed3727	-0.06386324272645237
96	0xbfd27c9c4baa0031	-0.28885562314099206
97	0x3fb56100b71b6fe3	0.08351139517202415
98	0x3fc7e919d6257798	0.18680117565503163
99	0x3fcbecba5db02f14	0.2181618649923328

by f8 [26, 1]
0	0x3faa682efaf1b2f1	0.051576107151822266
1	0x3fca6128930e88ec	0.206090041928355
2	0x3fd27e80d39de175	0.28897114434905485
3	0x3fa6b22a299c29db	0.044328038768145915
4	0x3fdb9f75605caad2	0.4316075745615936
5	0x3fd8568e03f29b5f	0.380282882552299
6	0x3fb9f4bba44a5404	0.10139057885164965
7	0x3fca5984a679389b	0.20585687759961932
8	0x3fd19e81dc1609b0	0.2752995156553437
9	0x3fc823d62792eab7	0.18859364445036927
10	0x3fd53d3c4f526616	0.3318625235202445
11	0xbfce453ff1799fd0	-0.2364883355214702
12	0x3fc5bb8114efc63a	0.16978467485709975
13	0x3fa972be4aba6b72	0.049703547117323846
14	0x3fda9a30ea81c761	0.41566107655591195
15	0x3fd33a5b62944f0e	0.30043682696235485
16	0x3fc4b3b0fbf5f267	0.16173374464769383
17	0x3fed3570c91bb40c	0.9127735069174618
18	0xbfa65ac48b4cee40	-0.04366125297971424
19	0x3fc50ce15ff79ee0	0.16445557771589048
20	0x3fe012f7f27bd9f2	0.5023154960643395
21	0x3fc3c3e063df8604	0.1544151771222887
22	0x3fc92a80d9db47c7	0.19660959851768053
23	0x3fc81dcdb5fa4ee3	0.1884095324099838
24	0x3fbfdca4896b33a9	0.12446049075079081
25	0x3fc84d60ef3ce35e	0.18986140901122445
