JST/model_100jt.npz (npz, 114168 bytes, 5 tensors)

Wxh f8 [100, 20]
0.0015815204388752175 -0.20233532357636827 0.09719307452201625 0.024452550877825403 -0.2508429971222427 -0.03611468667175559 -0.17952368024429113 -0.24417998522598516
0.7478240467006215 -0.7064677688420679 -0.10775272721463866 -0.32709859362831667 0.6949268534135017 -0.0027685921901853122 -0.14648541026712206 -0.19327005580944573
0.09488803185969902 -0.14986489513266882 -1.3608940733460053 -0.2846075899239882 -0.019975891814048123 0.1578095499624871 1.6683109318714286 0.18039389017254226
2.2336117631633234 0.9988256887272277 -1.1871467947787948 0.2304336684892171 1.0904589797928455 1.878175265544124 -0.8780501330734164 -0.24318670960309446
-0.5112119788815829 0.002867741669546201 1.3721323821883937 -0.5492927650183936 -0.2196379193489206 1.034984268604157 0.39975408269710516 0.6590326302923276
0.0187740918678968 -0.9459109689509309 -0.19560717984256917 -0.39271642000998064 -1.3454949261174765 1.639123861578571 -0.03500128943727572 -0.645999004574488
-0.06656149265527582 -0.14726272931769274 -0.7424298579652117 -0.004677326781836089 0.5191169059130714 0.0010481064828048612 0.5961077615147609 0.19773376709117035
0.8360104551168656 -0.21377001006231222 -0.08913523282157766 -1.2160407101298896 -0.0076926403430019824 0.2159277232541995 0.23276543902122004 0.13263278994413227
-0.0944096034294957 0.17612161560500006 0.007592573342455132 -0.2735962003061324 -0.03874891221359597 0.3542064087544153 0.19668021258376206 0.08666379149527675
0.13158765775940506 -0.0008670458868461618 1.0705471216758518 -0.19666466694664203 -0.17688739823199714 0.20355197911003053 -0.15194174122923446 0.03966915951456319
-0.02316436977516282 0.025354882517164723 -0.25580609059974696 0.01444169342989648 0.11634191625160811 -0.10496810373897421 -0.11738316903998579 0.10435700835736725
0.4362109977330793 -0.11211184740553615 -0.010801621560872313 1.5473581416710824 0.18391150720431415 0.001413375798753517 -0.10175204042650665 -0.0007355633263444486
-0.03230083970413629 -0.23259722465820587 0.08952177444230904 0.26078132634189305 0.0022672481199469186 -0.11981063735645467 1.1517097298224 0.39374565655925825
0.27161946847245205 0.02331884829682763 0.3720106209371766 -0.8430322891433657 -0.7481427697272452 -0.010218097306818231 -0.17447288666687205 -0.7995213878989095
0.8561897305993946 0.02127004120146742 1.4434355247105903 -0.18912440353609372 -1.256649712111696 1.5259801852877104 0.4960274163413148 -0.033490173602892
0.003065759180727823 -0.04563782733859327 -0.016784637439974163 0.2249227097766534 1.2437572750563286 -1.5769386812472703 -0.009219445556758733 0.17621263814007565
0.13601999805216833 0.11125657318768807 0.3045090806110108 0.30924444004819507 -0.4184645931178354 -0.004745560912637512 0.235599526524609 0.08316181418139217
-0.4602177868360635 0.18821590876030006 0.10348807726580847 1.5986402975432885 -0.013396455793509296 0.11719338431985618 0.5345305700698794 0.17365851408269448
0.1833996943118652 0.11092937105909774 -0.14180472261679228 1.823433678938205 0.07510112970096153 0.2194955518380603 -0.1856363354477793 0.3629969605153486
-0.03361376429431464 0.0003424555779066911 1.5569318789080808 0.11808886547611869 -0.12407192353257965 1.6708009258141765 0.21170267881139254 0.29630499129308263
0.011235980245939253 0.05035682297207824 0.022885960721166484 -0.427923714625855 -0.3009118331691403 0.1080234747669962 0.2108926535868388 -1.1654042687181827
1.0885342909951792 1.215497008076336 0.14171276153030266 -0.3074935124172932 1.2119250139090916 -0.016427195783583176 -0.024282830444800826 0.07952348132711334
-1.094236952534161 -0.21238951685474436 -1.2147588294934826 -0.2556764822966753 0.002732184991500239 0.14290526093985917 -0.0655337250827675 0.31424912498740937
0.09674396895173894 -0.06318846957575293 -0.10442922248865898 -0.12038572614465318 0.14204524065793633 -0.13222612347817037 0.10578866734859699 0.2992862971066387
0.13391680501747336 0.013855095297277591 0.013462986876487837 -0.1760714858980586 0.002783233126770328 0.13617868843804187 0.39519435550336224 0.2361025974742088
-0.008128047398086133 0.13879118658945028 -0.10486329825303026 -0.16571863774816772 0.2192549005870428 -0.06652761368171604 -0.8691582312051027 0.004554712978713733
1.4459313767900275 -0.763407249723119 -0.022256310252020246 -0.0037881000490273442 1.2844476820204493 0.008802844979692137 -0.059584431015650766 -1.0448675646007224
-0.5765383031633396 -0.05415122834979074 0.2413386676317533 0.49517592622087814 -0.003135676797647186 -0.21071731804973234 0.11187271523570685 -0.3032487384694818
-0.07881878507848968 0.15939207674557895 0.10429666239855301 -0.0721306959535155 -0.09060678421951465 0.07255826845649903 -0.11123241026829506 -0.2799889510850351
-0.025529989601661796 0.004255202343311353 -0.003761550237991056 -0.21829471593097294 0.04575721486548111 -0.43917675070205436 -0.15952303511390328 -0.342690019891828
0.0036695636127478323 0.2257255477620306 -0.11087832199038312 0.19923732736250405 -1.6181200434269996 0.12144837162422707 -0.14432250838310484 -0.027392754433431827
-0.09143175168374865 -0.11800992495237762 0.1819126975499104 -0.0122257172649154 0.1839859529612207 -0.011348888640946431 0.4325613682037886 -0.09887828326483465
00000000: 03f5 06a4 60e9 593f a704 cbb6 1fe6 c9bf
00000010: 9441 7834 a5e1 b83f 25d0 4be9 160a 993f
00000020: 9a85 44c9 cf0d d0bf 162a 52cc 9f7d a2bf
00000030: 8dde c0c7 a1fa c6bf 4012 712d 4a41 cfbf
00000040: bfba f7b1 2cee e73f 455a 5b4b 629b e6bf
00000050: 1612 71c7 ae95 bbbf b1e0 8cf0 2eef d4bf
00000060: dbbd 903d d73c e63f e0b6 359d 28ae 66bf
00000070: 891e 38af 08c0 c2bf 76b3 7fbc 12bd c8bf
00000080: c484 9e01 954a b83f 6ee6 b4db c52e c3bf
00000090: 0a76 25dd 38c6 f5bf a1ae bac0 0237 d2bf
000000a0: 1ef7 3268 8f74 94bf 15ed 0a74 1a33 c43f
000000b0: 3327 bfcd 66b1 fa3f 7c3a 58a1 2517 c73f
000000c0: 9efa 15d8 6fde 0140 ab9e 6f4a 61f6 ef3f
000000d0: b304 32a3 8dfe f2bf b47c 07b7 d97e cd3f
000000e0: ce6f 7d1d 8572 f13f a7b0 da81 010d fe3f
000000f0: 898f b997 fc18 ecbf 0a98 48fa bd20 cfbf
00000100: bdd5 5339 d95b e0bf 3bf6 e315 177e 673f
00000110: f181 b415 41f4 f53f 86de b56b ce93 e1bf
00000120: 2f55 4868 181d ccbf 2778 18aa 4b8f f03f
00000130: 5519 e825 9295 d93f e946 4399 cb16 e53f
00000140: dfbf 56fa 8339 933f 2a4d 9214 e744 eebf
00000150: 21b0 24f4 a709 c9bf 60e2 220d 4422 d9bf
00000160: 68bc 09b0 2587 f5bf cd2b 39f1 d939 fa3f
00000170: 3ae0 e662 b0eb a1bf dfab bc1a 06ac e4bf
00000180: 439a 208a 2c0a b1bf 9a6a 2b4f 81d9 c2bf
00000190: b31a f142 fcc1 e7bf 0d97 f858 8828 73bf
000001a0: b250 b60e 9b9c e03f 4c72 3fc4 132c 513f
000001b0: 1320 9395 5013 e33f ba58 7c0f 574f c93f
000001c0: 95e9 7aff 98c0 ea3f 04a7 0ad1 d05c cbbf
000001d0: 79d8 e30d 91d1 b6bf c4cc 891a e774 f3bf
000001e0: f9de 166b 5182 7fbf 6498 d606 85a3 cb3f
000001f0: c41b 1e06 42cb cd3f fbf8 977b 1cfa c03f
00000200: 9273 284f 3a2b b8bf 4032 9231 278b c63f
00000210: 1858 2ce3 6319 7f3f 26fb 27a3 9982 d1bf
00000220: 5c0a 6dbd e5d6 a3bf 8990 685b 51ab d63f
00000230: a6a6 6834 d12c c93f 2c36 3826 992f b63f
00000240: 2823 5147 ddd7 c03f f78b 33dd 4e69 4cbf
00000250: a3cb c604 f620 f13f 7e43 68cc 4e2c c9bf
00000260: f78f 3d0b 3fa4 c6bf e425 a8c2 fd0d ca3f
00000270: a509 bdb4 d372 c3bf f2b9 8c1d 844f a43f
00000280: ea93 778a 66b8 97bf 7011 d25c a1f6 993f
00000290: ef95 4f82 205f d0bf 5d94 d747 9b93 8d3f
000002a0: 7c62 7475 95c8 bd3f 7d99 ae8c 30df babf
000002b0: ffa8 20c8 d20c bebf aed7 0012 24b7 ba3f
000002c0: a1d2 5a88 e1ea db3f e8d5 19ae 5cb3 bcbf
000002d0: d51e c81a 291f 86bf 7ed3 5a9c fac1 f83f
000002e0: fc79 668a 698a c73f 4463 49b5 2028 573f
000002f0: b0e0 eef5 6b0c babf 1702 2437 5a1a 48bf
00000300: ca40 5354 bc89 a0bf dc0f 86f0 bec5 cdbf
00000310: 8975 8225 e6ea b63f 95f0 0229 a4b0 d03f
00000320: cdea dd90 c392 623f eeac 28f1 e8ab bebf
00000330: bf27 812e 676d f23f cb4c 77fb 2033 d93f
00000340: 0df3 829f 3662 d13f 83d3 426b e5e0 973f
00000350: 1d26 aca2 05cf d73f fcf7 ead9 1efa eabf
00000360: c1f4 161b c9f0 e7bf 07bf 14ce 39ed 84bf
00000370: 5eef 22a7 2055 c6bf 9d4e afe0 ad95 e9bf
00000380: ee0d 8301 e865 eb3f f126 614d d0c7 953f
00000390: ef43 48d9 4f18 f73f 5811 087c 3a35 c8bf
000003a0: c3c2 80ba 3c1b f4bf cd79 e232 6a6a f83f
000003b0: 9dbd c6c6 e9be df3f b43b b9c0 9f25 a1bf
000003c0: 007b 65ed 5c1d 693f f66e c25f d75d a7bf
000003d0: 2106 85f3 fd2f 91bf 9428 4f71 44ca cc3f
000003e0: d176 4807 6ee6 f33f 0012 fc0d 243b f9bf
000003f0: 9a6e 3a09 a5e1 82bf 860c fabe 228e c63f
00000400: c736 9e71 1a69 c13f e55f 4e8f 4f7b bc3f
00000410: e2cb a3a7 137d d33f 6484 1e31 a9ca d33f
00000420: 3767 7eb7 1fc8 dabf 4a3a bcce 1470 73bf
00000430: f329 b012 2028 ce3f 4363 2fb8 174a b53f
00000440: a8e5 df4d 3574 ddbf 3530 5b7a 7517 c83f
00000450: 02f0 61d3 317e ba3f 1542 40d9 0794 f93f
00000460: e59a 1fdc 996f 8bbf 7a1a f6b8 6200 be3f
00000470: 1f32 a5da df1a e13f c71c 5433 713a c63f
00000480: d83a 9524 a479 c73f 415b dd04 de65 bc3f
00000490: 525b 073b a826 c2bf d16e 17cb c82c fd3f
000004a0: 1a52 f5df d339 b33f 4e87 6124 6e18 cc3f
000004b0: 9a47 d972 eec2 c7bf 2a7e 7d9a 573b d73f
000004c0: 63d7 adc4 d235 a1bf 5ab8 e781 7371 363f
000004d0: 1f29 e066 31e9 f83f 4cde 3d67 123b be3f
000004e0: 269b ec75 2dc3 bfbf 7df9 67c0 99bb fa3f
000004f0: 1a3a fcc8 1219 cb3f e4b3 cf35 a9f6 d23f
00000500: 23f9 8ebd e302 873f b350 9797 5ec8 a93f
00000510: 4cfd 56d3 6a6f 973f 7c0e e025 1a63 dbbf
00000520: 2437 9cb4 2342 d3bf 6414 532b 6da7 bb3f
00000530: f3a1 0fcd 87fe ca3f d936 4cf2 7ea5 f2bf
00000540: a861 c6ee a26a f13f ec2d a1fd ac72 f33f
00000550: 5868 19ce a423 c23f db1f e444 f9ad d3bf
00000560: 301a bf7b 0b64 f33f d835 9f72 4ad2 90bf
00000570: 7c7c 752a 99dd 98bf 8463 909f a65b b43f
00000580: c357 539b fe81 f1bf 53c2 7366 942f cbbf
00000590: 5c3a 53f4 a66f f3bf c883 74e4 005d d0bf
000005a0: 7a77 eca5 ce61 663f 8ade 1437 b84a c23f
000005b0: 84fa 0376 d1c6 b0bf c585 a75c a81c d43f
000005c0: 25a3 bb76 36c4 b83f 0de9 4f9a 1e2d b0bf
000005d0: 33e3 559f dfbb babf aa4d b254 99d1 bebf
000005e0: 14d2 96d7 892e c23f 2aff 011e c9ec c0bf
000005f0: acb5 8c52 f714 bb3f 66b1 8db6 8127 d33f
00000600: 63a9 f794 2f24 c13f 0969 7a69 0f60 8c3f
00000610: 405a ba82 7b92 8b3f 525b d8ac 8289 c6bf
00000620: 2440 36e8 dccc 663f c274 a0a2 4d6e c13f
00000630: e6d8 1c44 dd4a d93f 2881 5323 9c38 ce3f
00000640: 387b 0a0e 70a5 80bf eaf6 afdb e8c3 c13f
00000650: 4426 8c34 52d8 babf 93a7 bbb0 4436 c5bf
00000660: 8929 c169 8b10 cc3f 8b3c 0b25 f407 b1bf
00000670: 6867 42ec 24d0 ebbf bb72 9474 f6a7 723f
00000680: bc2c 79f0 8822 f73f 1ce2 620a d56d e8bf
00000690: 22f2 a5b2 5bca 96bf 69b3 62ba 3808 6fbf
000006a0: a136 3b03 198d f43f e072 65da 3907 823f
000006b0: fa3f 20bd d981 aebf c3c7 290d c7b7 f0bf
000006c0: c54a 9f74 0073 e2bf 87e5 99b5 b5b9 abbf
000006d0: 418a 5e7a 2fe4 ce3f cca6 385e f6b0 df3f
000006e0: 5bbc 7ea9 fdaf 69bf 27ba dcfa c8f8 cabf
000006f0: 7088 40b5 b0a3 bc3f 4de6 9165 6d68 d3bf
00000700: 15fa 38c8 772d b4bf 7790 6ea6 f566 c43f
00000710: dc6f 15a2 2fb3 ba3f 2f77 2844 2877 b2bf
00000720: 52bf 0497 0132 b7bf 9736 13be 2d93 b23f
00000730: 7c8a 5b2c ba79 bcbf 50b3 09c7 56eb d1bf
00000740: 2d1c a099 8824 9abf 122b 702e e76d 713f
00000750: d74f 24e8 8ad0 6ebf f014 e8cc 14f1 cbbf
00000760: 8e7b ce5a 7d6d a73f 9572 5bcd 781b dcbf
00000770: 8bed 6235 406b c4bf a276 061f a2ee d5bf
00000780: f08e a2f6 a10f 6e3f d13a c122 93e4 cc3f
00000790: b5b7 c88e 8562 bcbf 160b 95d6 9b80 c93f
000007a0: 4656 b8d7 d1e3 f9bf 694c 4790 3d17 bf3f
000007b0: f282 caf2 2879 c2bf c57b c1a1 d80c 9cbf
000007c0: a235 4c3f 1268 b7bf c11c 4600 e635 bebf
000007d0: d21c 5a4f ea48 c73f 0469 95fe cb09 89bf
000007e0: b927 7209 da8c c73f cd71 780c 163e 87bf
000007f0: b9b0 7ce0 15af db3f fb36 e850 1650 b9bf

Whh f8 [100, 100]
0.13436695315509103 -0.4176987410292839 0.07374799282843267 -0.09812802445550543 0.10903683644619301 1.1639512250805737 -0.23479988211114713 0.6888119804531924
0.18895337777046253 0.07559757538688669 -0.23062049603473275 -0.18276173752710842 -0.00473270447243689 -0.13302152869364187 0.3629081727471008 0.3058272425976301
0.31293895631601215 -0.05459668407720598 0.0004284879432275913 0.10960634308494634 -0.20842220241795417 0.05834962736423936 -0.2581540738068898 0.1665398561118311
-0.34095477644681127 0.362441033897421 0.5904762179538675 -0.12619246363469558 0.0208640209484678 0.30673151339308025 -0.21267917259833954 0.10623812513126465
0.2980914945690819 -0.11190481631088049 0.37788466376435936 -0.06136276866206997 0.34457506220187967 0.08009588425127018 -0.3728518389212595 0.06925039588287178
-0.15850211851199325 0.16896042297619304 0.26584387269993354 -0.004893719735426687 -0.1259299110272689 -0.10910549046868188 0.09376991846210078 -0.07811054965601513
-0.466755399171541 -0.08383345803260547 0.03713355697620974 0.31065865175367857 -0.2670585129701433 -0.06721064572519546 -0.14208709494229163 0.13759870369813837
-0.02054234305794143 -0.0737156243269445 -0.2357826942710515 -0.28473922309654387 -0.10723989144515189 0.28469283459503586 0.06143712186485201 -0.16621748228979613
0.049897936769531144 -0.462685021050444 -0.34068862470435973 -0.47941488708961427 -0.1210204720929434 0.33406133144468597 0.10139222515938291 -0.3505008301400646
-0.20877374316896316 -0.14553888721722338 -0.0883664337727305 0.08151486180727152 0.11988118058401813 -0.11199920825367718 0.1898736893669769 0.08210214068463181
0.3349788387132295 -0.2038058329060592 -0.02829236021295385 0.22672673490413273 0.15469987270772873 0.2919836435340361 -0.287828868695804 -0.13002577954529798
-0.2473193324630391 -0.1561257790861068 -0.2511588767099027 0.01834955812355835 -0.7983405079272888 0.25684684052437246 -0.1711400847293558 0.20078503620055246
0.2088721640656237 -0.11157297192859894 -0.16719665040963808 0.02935069142554009 -0.17863011018270206 -0.7478597243856376 0.22761829651909482 -0.2762196288386606
-0.22006118720971285 -0.008374405625536012 0.12655401282301856 -0.1894917094664084 0.07775853786975523 -0.04691973378120375 -0.08778137714236918 -0.08579599708508047
0.007981667060985496 -0.09242617525364692 0.019777626804574615 0.19631637067210558 0.2783809078380727 -0.48727834770173467 0.014145346077466417 -0.36383277781205736
-0.16565979794581076 0.17633833598596346 -0.006994063393869054 0.10100847862714586 -0.7779404351392397 0.005044952162937416 -0.10017068741577376 -0.34292717711704396
-0.015946973687262497 -0.23034482852290394 0.10640981741554095 -0.26886393782029305 0.28699469736033073 -0.08935414902865853 -0.06130537659342992 -0.033822645424401984
0.20925131228361166 -0.12185432890206489 0.08140209682095315 0.13103659266164625 0.15109931107092023 -0.05843296797702017 0.12776136777764824 0.5468881621768248
0.17756505355803898 0.0651196186218397 0.0696243558483564 0.06730161235837476 -0.1340006037320258 -0.12871016316874845 -0.05025184383372204 0.1331656997507204
-0.001227258637103226 0.25747253627031974 -0.26743184227202005 0.17575513936050471 0.03446371287905413 -0.04332865463360535 -0.6641579543799152 -0.5874217418467805
-0.36760128006258225 0.649365971161781 0.09408044679296172 0.2129236653759605 0.17801616066718107 -0.3153225824372946 -0.04429026032931469 0.07161426555617055
-0.030009646689807788 1.0219219960826118 0.13451305669643093 -0.2560502783465523 0.006667240259869097 0.18295019312646824 0.630503206099183 0.18800265111840414
-0.1385842853550123 -0.49597272788886937 -0.24202663091769136 0.6299887406300839 0.2251113541556661 0.5106620036852672 0.08212139305064357 -0.4402519579408849
0.3389212778160075 -0.10888767700488258 -0.16622417442021464 -0.11568448579682106 -0.07216164675756645 -0.26643732319406915 -0.16636481677813542 0.001042966967126659
0.210045473034585 0.21435132297085732 0.569463150993513 -0.01764221440473382 -0.30049128207964265 -0.15528656011882155 0.32496187478481026 -0.19090601101726085
-0.2326600820340086 -0.07394053007528156 0.1771893113372749 -0.12074476742615867 0.45402032162868167 -0.12743512674919524 -0.1709814296324469 0.2064876156307965
-0.39558136647202424 0.29240857072786514 -0.12358789072007684 -0.42893198594853593 0.1707203672095648 -0.44280141631631337 0.06168118716884845 0.028596246190574225
0.15008907087375534 0.04537377677753305 0.06506303477645785 -0.0322270486021117 -0.1396735214967063 -0.20625393041631696 -0.2936301739839504 0.18138677848374452
-0.19389963910109867 -0.2903207596313376 0.24499697825519062 0.08669775141339703 0.17039016977300683 0.18679806835319934 0.008564608113178083 -0.15208180318488826
0.22873317334277302 -0.3316710692714172 0.2726480990027569 -0.029146848464113192 0.06227896811752177 0.20139720073601367 -0.17200394261135885 -0.06757321268152681
0.06807040766787564 0.03774318347630356 0.2450899696453135 0.15041685249286726 -0.160965695016697 -0.04157551281815937 0.18622359771940017 -0.07930363067647775
-0.0752436579080687 0.26094396977111767 0.05922804399950189 0.09068061545658967 -0.03805053578623183 0.20315935798732582 0.24762813063268113 0.08939935932860808
00000000: 876d bbb2 ef32 c13f 0146 1380 93bb dabf
00000010: b600 5801 26e1 b23f 1384 db0f eb1e b9bf
00000020: c97f 988e d6e9 bb3f 60c3 dd51 8b9f f23f
00000030: f5d1 622b ec0d cebf 6576 246c bf0a e63f
00000040: 5d16 ffd0 9f2f c83f fe8d f1d9 5c5a b33f
00000050: 2bd4 20f0 f884 cdbf efcc d192 bc64 c7bf
00000060: 7559 e4ae 9962 73bf 5a99 b375 d906 c1bf
00000070: 3b98 5933 e339 d73f 05b1 4b6d ac92 d33f
00000080: a162 c11d 3107 d43f 31cd 29b9 18f4 abbf
00000090: 7dc8 f0b3 d514 3c3f 71e7 fb4a 290f bc3f
000000a0: a49c 9227 94ad cabf 76c1 869a 00e0 ad3f
000000b0: d21a 15aa 9885 d0bf d58c bd91 2d51 c53f
000000c0: 4842 90fb 33d2 d5bf aa57 d4e0 3b32 d73f
000000d0: 23af a561 2ee5 e23f 1f06 281c 1327 c0bf
000000e0: 7402 8cbe 605d 953f 6241 ab36 7da1 d33f
000000f0: 9bd3 6c35 1239 cbbf 7af2 06f9 6b32 bb3f
00000100: 3ef5 1859 ee13 d33f 53f3 5146 cba5 bcbf
00000110: c8c8 2128 432f d83f 09f3 30d9 f06a afbf
00000120: bb26 cb8f 840d d63f ac45 67f3 2981 b43f
00000130: b2e5 9af5 cddc d7bf 0b4f 8dd9 64ba b13f
00000140: 7888 ad23 cc49 c4bf 4323 80c1 7ea0 c53f
00000150: 19a5 c504 9603 d13f 45db 82e3 6f0b 74bf
00000160: bfa3 b9a8 781e c0bf ef84 6061 56ee bbbf
00000170: eeaf 242d 4e01 b83f 66c3 3e90 0dff b3bf
00000180: 9d15 ab09 52df ddbf 6285 8f08 1c76 b5bf
00000190: e90c 9869 2b03 a33f 9e18 60d3 d4e1 d33f
000001a0: 61cf d496 7c17 d1bf 8b2f 5585 b734 b1bf
000001b0: 27fb faf0 e82f c2bf fa80 2d96 d59c c13f
000001c0: 7be1 774e 0d09 95bf 2c3e b0f3 06df b2bf
000001d0: f9af 6d98 202e cebf 7ea3 c5dc 2a39 d2bf
000001e0: 6861 95d2 1274 bbbf 1770 7f4b 6838 d23f
000001f0: e8fd 56ba af74 af3f 1fa4 3a4d 9d46 c5bf
00000200: 2143 20ed 388c a93f c7af 70a2 a19c ddbf
00000210: 455d 4ea9 d7cd d5bf bdfc 50c7 bbae debf
00000220: d721 c999 32fb bebf ee70 5ac7 4261 d53f
00000230: e5d2 2043 d7f4 b93f 1209 ab08 9b6e d6bf
00000240: 314c 9617 19b9 cabf 5f75 72ac 04a1 c2bf
00000250: 0b37 1ebf 2e9f b6bf 18a6 9971 28de b43f
00000260: 73a4 0376 88b0 be3f b29f a0e8 faab bcbf
00000270: 14dc 19f3 c74d c83f be0d 2c59 a504 b53f
00000280: 3706 4815 4b70 d53f 6e64 883d 4f16 cabf
00000290: b47a 5d27 acf8 9cbf eb63 c5b3 6105 cd3f
000002a0: b2ce fc96 34cd c33f d384 fc29 dcaf d23f
000002b0: 7929 79c6 c96b d2bf d258 644b afa4 c0bf
000002c0: 7674 4cee 28a8 cfbf 7861 9ef5 edfb c3bf
000002d0: 996c 64ae fc12 d0bf a99d 2500 3aca 923f
000002e0: ddd4 9364 018c e9bf d484 08bb 2d70 d03f
000002f0: 8f3f 7915 ebe7 c5bf 5df7 00f6 52b3 c93f
00000300: e071 dab4 52bc ca3f 1005 8dd9 0b90 bcbf
00000310: 494c c128 b366 c5bf 3196 268f 1b0e 9e3f
00000320: fd64 a8f8 59dd c6bf 9f6b 4784 77ee e7bf
00000330: b4a7 c2a9 9822 cd3f 0205 1818 95ad d1bf
00000340: 9ea2 1709 f72a ccbf afea 47b2 9926 81bf
00000350: 9b4f 2001 ec32 c03f d9bb 82ab 4341 c8bf
00000360: 04a8 22c9 fbe7 b33f 032d 4104 dd05 a8bf
00000370: ad39 0620 d778 b6bf 89ae 9bf9 b9f6 b5bf
00000380: d2b8 f437 b158 803f 473f 02e8 3da9 b7bf
00000390: bec6 4511 9640 943f b761 da13 e520 c93f
000003a0: 32b3 bf27 fed0 d13f 2d62 db85 912f dfbf
000003b0: 3bb8 5836 3cf8 8c3f 8899 7a46 0949 d7bf
000003c0: 8838 381b 5734 c5bf 739e 0b2d 4192 c63f
000003d0: 4c62 af98 cea5 7cbf ad82 5210 b1db b93f
000003e0: e316 e556 e3e4 e8bf ed92 cb08 04aa 743f
000003f0: 52f5 7742 c9a4 b9bf bd25 a8d4 84f2 d5bf
00000400: 9fee d349 6754 90bf 3880 a778 f07b cdbf
00000410: 8ce8 c57d ac3d bb3f 90c3 0017 1135 d1bf
00000420: 376f d201 1f5e d23f 250a d7db e9df b6bf
00000430: 5d53 1317 6b63 afbf a68c eca7 3351 a1bf
00000440: e69b 733b bfc8 ca3f 55a9 8265 d831 bfbf
00000450: 5afc ab8f c4d6 b43f 4cd0 079c cec5 c03f
00000460: b8b5 bfe3 3857 c33f 8564 f00c edea adbf
00000470: 8c0b 2608 7c5a c03f e7ce 639a 1b80 e13f
00000480: b4dd f8a0 73ba c63f 210d 4fe8 adab b03f
00000490: 8bae 5fdb e6d2 b13f 221b 0cb0 ad3a b13f
000004a0: e72e 5689 ee26 c1bf 1a7e bc1a 9379 c0bf
000004b0: deb8 a813 9cba a9bf 1e6c b0da 920b c13f
000004c0: 3f25 72ed 7e1b 54bf 728c b916 6e7a d03f
000004d0: 2be9 1d72 9a1d d1bf 1522 d4f7 247f c63f
000004e0: feb4 6d4f 3aa5 a13f 3f14 4365 2c2f a6bf
000004f0: 7214 ae2e c840 e5bf f11e 46ae 28cc e2bf
00000500: ab89 f584 c786 d7bf dacd 2825 9bc7 e43f
00000510: 0339 2bfa a715 b83f ffc6 aa29 1541 cb3f
00000520: 98cd 1cca 3bc9 c63f 5a8a d0c4 3e2e d4bf
00000530: 7d9d 4a87 36ad a6bf d7a5 7d00 5055 b23f
00000540: a692 634c d9ba 9ebf 44ce 03e1 ca59 f03f
00000550: 86b5 b24d b937 c13f 3354 e8b4 2063 d0bf
00000560: 0970 eead 1b4f 7b3f 5535 2374 e96a c73f
00000570: 2f03 470f 152d e43f 32b3 0e8b 7810 c83f
00000580: 7f6e ab3e 21bd c1bf 0266 7f65 04be dfbf
00000590: dbb9 4688 bafa cebf 8c57 bb25 de28 e43f
000005a0: 2d47 07e8 72d0 cc3f f06a a4d7 5757 e03f
000005b0: 8758 7459 e805 b53f d2c9 568c 162d dcbf
000005c0: 9fd9 08df e2b0 d53f c262 ac13 10e0 bbbf
000005d0: f83e 7870 d546 c5bf 6ce4 269b 7f9d bdbf
000005e0: 9a68 d988 2f79 b2bf 0959 6321 4f0d d1bf
000005f0: 1c31 a23b 714b c5bf 6e7d ef40 8516 513f
00000600: 459e ad22 c5e2 ca3f 2fd0 0139 dd6f cb3f
00000610: 7b6a 39c9 0a39 e23f 68e3 96f7 cc10 92bf
00000620: a5f8 50c9 3f3b d3bf 97fd 9b14 6ee0 c3bf
00000630: 6572 29e4 2ccc d43f dee7 f6b0 9b6f c8bf
00000640: f1da b539 cec7 cdbf 70b1 853e c4ed b2bf
00000650: 507a b2ac 23ae c63f 962b 420b 21e9 bebf
00000660: 6e55 4740 ab0e dd3f 9dec df52 cb4f c0bf
00000670: d451 3f30 b8e2 c5bf abe6 14aa 2f6e ca3f
00000680: a0e0 f981 3451 d9bf 8329 1670 d2b6 d23f
00000690: ba08 d3bc 74a3 bfbf e5dd f624 9f73 dbbf
000006a0: 728d f63c 2ada c53f f3dd 6cc0 db56 dcbf
000006b0: 765a 5633 ad94 af3f 4320 b598 5548 9d3f
000006c0: 24e5 7161 1e36 c33f 3d05 b64e 3b3b a73f
000006d0: 131c 8b96 f8a7 b03f 24d9 954f 1080 a0bf
000006e0: 5c06 796b d2e0 c1bf 0a9f e75e 8766 cabf
000006f0: 944f 9836 d6ca d2bf 74da c194 ae37 c73f
00000700: 2d9d 5210 b4d1 c8bf adda fd85 9d94 d2bf
00000710: 70c8 9c9c 0f5c cf3f 2c10 f5e6 d231 b63f
00000720: e912 5e57 58cf c53f 2838 44c5 ffe8 c73f
00000730: 9245 fe3d 528a 813f 7f76 7fa1 6a77 c3bf
00000740: bd3d 82ed 2047 cd3f a234 e34a 193a d5bf
00000750: 6823 2203 1173 d13f 1f45 bde3 abd8 9dbf
00000760: 4136 9666 07e3 af3f 6164 552b 62c7 c93f
00000770: 9f40 26a6 3904 c6bf f784 8d62 7a4c b1bf
00000780: 2848 c2ee 0f6d b13f 1ff5 5a15 1353 a33f
00000790: 0025 1aae 1b5f cf3f ffaf 1c03 dc40 c33f
000007a0: acf3 ef1d 869a c4bf faa1 bcb7 6249 a5bf
000007b0: 5e61 f9c2 2cd6 c73f 0aa4 3524 3e4d b4bf
000007c0: 3452 f219 2b43 b3bf de57 1056 4eb3 d03f
000007d0: 02c3 f75f 2353 ae3f 8867 c445 d836 b73f
000007e0: 2d23 981d 5c7b a3bf 2e49 3737 2001 ca3f
000007f0: 9a88 5151 47b2 cf3f 8787 995c e0e2 b63f

Why f8 [20, 100]
0.36985031372159116 -0.10472277411975506 0.07054079518472813 0.06925298776670537 -0.08280213038415202 0.15595993605808656 -0.15339138761152768 -0.06332390218661325
0.32468101846046954 -0.06378235358619405 0.09693292490533151 0.11362143625439358 -0.007741251225029934 0.057412638832103784 0.1437487139487505 -0.048546238113586104
-0.08271661593859851 0.058136321628301936 -0.03547893831698417 0.026192641225263182 0.003933858024106263 -0.07131053313092656 0.0899107643409591 0.13906952785852414
-0.17817129806799875 0.28310232366304755 0.09876944893073737 0.051460560737342 -0.07438605391132097 0.15824206081015058 0.036985157842584424 -0.3527972484335707
-0.32701537781340106 0.001807482501794213 -0.1250451006952715 0.12745670482028096 0.1620043303346323 0.12561697781524858 -0.09260896307199626 -0.17671629403435982
-0.21477672009090545 0.4333814187187403 0.11043681010732564 0.05609072658285479 -0.20830283098283067 0.11028578483010401 -0.01453099754618227 0.03475225993789751
-0.19125398371529553 0.07105896315853116 0.018673430744862173 0.14731485682747886 0.0942261210861783 -0.0726674544087836 -0.14530335156436333 -0.11528349018804633
-0.19186449628785973 -0.16431669079767844 -0.01622615381399296 0.2281192122164835 -0.20627184322474817 0.042193842056914004 0.10998437308170379 -0.2182842778817165
-0.038542197875145595 0.038137611456623234 0.0031997152649114046 0.16205581489583648 -0.08637989769058495 0.22289956425823787 0.1467515307210291 0.07789792549178376
-0.026418309718784023 -0.4990943735607939 0.03400645931018012 -0.08384963608809706 -0.11591105910507775 -0.16677306164191305 -0.13669604876678057 -0.0974211972705188
-0.11927909646226577 -0.12793750505296425 -0.15866391596136056 0.17322861342626802 0.12966987065490615 0.21411658303790293 -0.09647092500281793 0.13118002692903097
-0.11627416788451367 0.054820513217905674 -0.12328305769144257 0.23789227472605814 -0.07221323483837105 0.14935625235847041 -0.45501755384196224 -0.03808758404228193
0.08115228650018191 0.06237894336898696 0.13543107506210242 -0.1535802587819417 0.9181034425105217 -0.4868227434945982 0.03692466664470871 0.6736447521245792
-0.24582302013267698 0.31910966035689065 -0.09765616677162407 -0.3550501988157731 0.47851774909046774 -0.28231095055791744 0.342426762267499 0.21983668535815926
-0.006639504033904762 -0.12003638510669717 -0.005137498169480254 0.057492262231427074 0.052648524984716345 1.3219578544619348 -0.02488078265837515 0.0695045378399019
0.21219005351565942 -0.24820777535301436 0.27511011578769723 0.2753251390560743 0.9071430812012569 0.08647838000254497 0.015797016389643724 0.04895251328670444
-0.18929479988777465 0.04100672770800583 0.047551073247382614 -1.3434684049439618 0.2698188901141726 -0.06598931697857631 -0.20011359640348308 0.6377696456573251
-0.26008232044289115 -0.032638769059683534 -0.14426608545970954 0.054906151537177934 -0.6229614101457168 0.3668892245835066 -0.251104210583566 -0.5521696491946796
-0.07519804137234723 0.019488392004973883 0.032534743102942784 -0.008405341743896216 -0.24068554732827385 0.04056857105249512 -0.039340208815949004 -0.03960620301759036
-0.13916906084207722 -0.04203758519792536 0.004118536587701741 -0.4009089966255581 0.6307031305276474 0.1958564132768043 0.8240602284708711 0.06688056082184846
-0.17001683909112378 0.1541072122627976 0.22336770333071707 -0.28377993056842815 0.08497597363043859 -0.09020771867098815 -0.048317258184624456 0.18265137931627137
-0.14993415194664947 0.388987671987071 0.1374239886583655 -0.2282747932476785 -0.9072513504071332 -0.3190871990842194 0.04555798358904546 -0.24653877485913547
0.01388791217979679 -0.24284943915978702 -0.06879675159319984 0.07134409086159137 -0.2547772121627794 -0.2414251708490146 -0.3773642454455229 0.17583198706693157
0.44818746673400195 0.07274470013173592 0.13178032243159132 0.06883369704158858 0.09154060283759861 -0.06864961632066194 0.23426180535286956 -0.05301630173256357
-0.14649699269360836 0.057558043860419246 -0.1895910056673512 -0.232928930918222 0.456903651722068 -0.13242444529310443 0.03126370665787261 0.15065574408177693
0.30304402492090793 -0.32404438608093306 -0.13558310172875818 0.08428489037213988 -0.10831086259368736 0.40181560691628415 -0.1346516210097374 -0.13535105933413352
0.26746256705215543 -0.09729329963823846 -0.30669694659589014 -0.11720650474711329 -0.04554589544720279 0.017617778226288947 0.10230417456345099 -0.10569475535493994
-0.4139032103095772 0.135384931712031 -0.04521966316086053 0.05182935225583352 0.09089158807816712 0.2714048679506791 -0.10871805316357311 0.15780159347185643
-0.3193389828817683 0.2083819773604939 0.07094857999405084 -0.11658715093679363 -0.2717961614648206 -0.5150686402440685 0.1023279276590636 -0.14781838849897028
-0.3866229915339917 0.14231332214755324 -0.17271485087869973 0.07969951216861801 0.10611487245576422 -0.07705153483881638 0.7606604453414239 0.06274861260939862
-0.2944895767622319 0.3082431458931092 0.09551194415401856 0.023391440688799846 -0.3944632767729991 -0.04233035406308535 -0.13959225905518904 0.36859023429448884
0.28030957866347306 -0.04722651321660754 0.5451583458997352 0.10094202049067648 -0.01118756413440498 -0.9850062418240825 -0.7978560996503278 -0.0538592314547345
00000000: 6c5f 76a6 a0ab d73f 58a1 fd99 1ccf babf
00000010: 812c 5a28 f60e b23f bdb8 9b55 90ba b13f
00000020: e4ff 093a 8532 b5bf a888 6dc4 7ef6 c33f
00000030: fbc8 a338 54a2 c3bf d354 f2c8 fe35 b0bf
00000040: 2fdc fae4 92c7 d43f ccf0 b652 0a54 b0bf
00000050: f4bf 5f9e 98d0 b83f b850 d660 4b16 bd3f
00000060: 354a 774d 4ab5 7fbf 6f67 527c 3065 ad3f
00000070: a63f a09c 5b66 c23f 3857 1572 0ddb a8bf
00000080: 4bc5 4a88 ea2c b5bf fde2 3440 0bc4 ad3f
00000090: d757 899f 4b2a a2bf 175e d565 3ed2 9a3f
000000a0: 6765 f8f8 f21c 703f 045c a837 6841 b2bf
000000b0: be1c 6750 6404 b73f 01e2 02c1 07cd c13f
000000c0: a6da 242d 51ce c6bf 3a7b 6335 591e d23f
000000d0: a15f 0061 f448 b93f 4729 cde2 0959 aa3f
000000e0: acde d3e4 f60a b3bf acff 039e 4641 c43f
000000f0: c61a bef6 b7ef a23f b505 09e9 3a94 d6bf
00000100: 5cd9 3fe8 d1ed d4bf 705c ee8e 219d 5d3f
00000110: 976f 0155 7a01 c0bf c5f4 6d55 8050 c03f
00000120: 067f 4cd2 8ebc c43f 0bf9 c495 3714 c03f
00000130: 26f0 b593 38b5 b7bf 6f21 c6b7 a39e c6bf
00000140: 59c5 5db6 cd7d cbbf 1fd4 056b 85bc db3f
00000150: a07e af37 9645 bc3f a781 9078 ecb7 ac3f
00000160: fd23 5ecb aaa9 cabf f219 0f6f b03b bc3f
00000170: 08b2 e979 6dc2 8dbf bb6c ca57 0ccb a13f
00000180: 7fb9 a4b2 027b c8bf ec82 da92 eb30 b23f
00000190: 83c8 69b9 201f 933f 1efc 2496 36db c23f
000001a0: 7d7b 7efc 331f b83f 0557 2b94 559a b2bf
000001b0: b7eb 7bdb 4c99 c2bf 7b5b 2004 3883 bdbf
000001c0: 88f1 680c 048f c8bf 4ddc 944e 5408 c5bf
000001d0: c344 e2bf 969d 90bf f28f 07a6 0233 cd3f
000001e0: 0a33 5ea2 1d67 cabf ef3d 7467 6e9a a53f
000001f0: adfc 7495 ef27 bc3f 42d1 5d3d bdf0 cbbf
00000200: 3488 c78e cdbb a3bf 2552 e8e3 c586 a33f
00000210: 61f5 6a0d 4a36 6a3f fa57 8db4 3ebe c43f
00000220: 3fe6 9c33 fe1c b6bf 7011 6411 f987 cc3f
00000230: 64d9 8a10 c1c8 c23f 40d8 6952 1ef1 b33f
00000240: 85f6 07c1 660d 9bbf faea 0387 29f1 dfbf
00000250: a411 2e6d 4b69 a13f 1aa6 c774 2b77 b5bf
00000260: 3bdd 19e0 58ac bdbf 238b cdd6 d158 c5bf
00000270: 210e 7991 417f c1bf 81cb 3678 98f0 b8bf
00000280: 59e0 662a 1389 bebf 4631 1194 4160 c0bf
00000290: b9fe 0d65 194f c4bf 03d9 b2ee 5a2c c63f
000002a0: bea3 deb6 0599 c03f 7ceb d614 2c68 cb3f
000002b0: 9ee7 e68b 51b2 b8bf 1c38 c6d2 81ca c03f
000002c0: 6400 6fd4 24c4 bdbf 6b78 d72e 6f11 ac3f
000002d0: 4285 ef7c 7a8f bfbf 19b1 f509 4173 ce3f
000002e0: a01b f809 917c b2bf a997 aa0d 1b1e c33f
000002f0: 7fdb 36f2 011f ddbf ebc4 b03f 3780 a3bf
00000300: 308f 8370 65c6 b43f de29 7503 22f0 af3f
00000310: 317e 2033 ce55 c13f c8cb 6396 84a8 c3bf
00000320: c6af 7d78 1a61 ed3f ec87 9094 1a28 dfbf
00000330: 3e38 4f37 cae7 a23f 32e8 6f70 7f8e e53f
00000340: 3072 09f4 2077 cfbf 4983 c4ec 4a6c d43f
00000350: d36e 899a feff b8bf e187 1678 24b9 d6bf
00000360: bc8a b9e8 08a0 de3f 3ebb fcf2 6111 d2bf
00000370: 68b3 4df0 51ea d53f d883 09c7 9b23 cc3f
00000380: 641a ff4a 0632 7bbf ec02 5d5c b4ba bebf
00000390: e157 f0a9 0e0b 75bf ba33 1d34 a06f ad3f
000003a0: d9e6 fb59 bff4 aa3f 5eab 7947 bd26 f53f
000003b0: 2834 440f 597a 99bf 4c2b f2a4 0ccb b13f
000003c0: 8b70 312e 0b29 cb3f ba86 e0ba 45c5 cfbf
000003d0: fdd7 8675 679b d13f a9cc 0055 ed9e d13f
000003e0: 90aa 51ed 5007 ed3f 9b07 ec75 7223 b63f
000003f0: 4653 12d3 172d 903f 6c2e 3fc7 4d10 a93f
00000400: d411 69df cf3a c8bf 4efe d774 d5fe a43f
00000410: 7073 f940 9d58 a83f fd18 e7b9 d87e f5bf
00000420: 7289 3873 b644 d13f ddf0 4e06 ade4 b0bf
00000430: 02da 0484 529d c9bf dd59 4fe3 9b68 e43f
00000440: 0a7b 2451 30a5 d0bf ced5 625b 07b6 a0bf
00000450: a056 7ca3 4f77 c2bf d11d 67ba a81c ac3f
00000460: 62de 67c4 4cef e3bf 4ad2 35f1 1c7b d73f
00000470: 3a09 1665 1712 d0bf 7151 24af 5fab e1bf
00000480: 62e0 6ac8 2d40 b3bf a280 40d9 c3f4 933f
00000490: fec7 38d3 64a8 a03f 56c2 36df d136 81bf
000004a0: b088 32b5 c8ce cebf 50f3 d45b 67c5 a43f
000004b0: 2e8b 905c 6624 a4bf 85cb 5ba5 4347 a4bf
000004c0: c743 77b2 4ad0 c1bf 847c 414b f385 a5bf
000004d0: 5195 393f 99de 703f dc73 4b35 7ea8 d9bf
000004e0: ec3b e354 b82e e43f 8e2c deac d211 c93f
000004f0: 0aef 668e b35e ea3f 68cd 779d 151f b13f
00000500: b534 d59d 1cc3 c5bf 8a8b 5ffe c8b9 c33f
00000510: 27df 641a 5097 cc3f f95c 434c 7329 d2bf
00000520: 0541 b043 fcc0 b53f cce5 8961 da17 b7bf
00000530: d87f 7827 0abd a8bf 57c8 5dd2 1e61 c73f
00000540: 8f09 95d3 0a31 c3bf 47d3 6e8c 2ce5 d83f
00000550: 719d 7cf8 1b97 c13f 0ffe bfc1 1b38 cdbf
00000560: e103 e8fb 3308 edbf c7e4 28b7 ec6b d4bf
00000570: 0a5e 2c43 6053 a73f 69a2 9b23 958e cfbf
00000580: 80bf f904 4471 8c3f 7688 85bf b015 cfbf
00000590: b6f0 29f6 a99c b1bf 5b6d 0339 9b43 b23f
000005a0: 0c55 8014 454e d0bf 4426 9d1e 05e7 cebf
000005b0: 3591 375d bc26 d8bf 7786 059d a981 c63f
000005c0: 4760 067c 1aaf dc3f 06ec 058c 659f b23f
000005d0: 74cd 8c77 2dde c03f 7f09 a8cd 159f b13f
000005e0: 7b90 7177 346f b73f caed fa70 0593 b1bf
000005f0: 98a3 5874 4afc cd3f e244 31e4 f324 abbf
00000600: 476b 4ad8 69c0 c2bf d924 0178 3f78 ad3f
00000610: c47f 7aa0 8444 c8bf 4502 4b7e 9dd0 cdbf
00000620: b16e 64d0 e83d dd3f 0ec7 dcc2 48f3 c0bf
00000630: f36a 4beb cb01 a03f 5b94 e4fa af48 c33f
00000640: 0125 12c4 1265 d33f 5de1 2aaa 24bd d4bf
00000650: 5b5a e87d c95a c1bf 44fe b1cf b193 b53f
00000660: 3635 a4bc 42ba bbbf cc94 aece 58b7 d93f
00000670: f58b 4baa 433c c1bf edd6 a8fa 2e53 c1bf
00000680: 6e2a 9950 1b1e d13f 0cf0 10b4 36e8 b8bf
00000690: df64 da3a eca0 d3bf 1b6f c4d8 3e01 bebf
000006a0: c256 d3a6 ca51 a7bf bc88 3d15 650a 923f
000006b0: 418a fe3b 9b30 ba3f 34b2 9bbd cf0e bbbf
000006c0: 804c ffe3 637d dabf d784 091f 4b54 c13f
000006d0: dbf5 d21c 0827 a7bf 41c6 d279 6089 aa3f
000006e0: a1f8 46ce ab44 b73f 04b2 f485 b25e d13f
000006f0: 9a84 d242 f2d4 bbbf 99f1 9bb5 d732 c43f
00000700: 942a f4c5 0c70 d4bf bc68 ebb8 42ac ca3f
00000710: 93a7 c5a6 af29 b23f b947 68d0 a7d8 bdbf
00000720: 05dd 2aba 1b65 d1bf 0e64 a13a 717b e0bf
00000730: 9e5c c3be 2932 ba3f 2edd 2c84 b6eb c2bf
00000740: 9e4a 215c 6ebe d8bf 5155 34ac 5237 c23f
00000750: 375d 072e 851b c6bf 6678 45ee 2f67 b43f
00000760: 7714 d122 582a bb3f 2444 3d3e a6b9 b3bf
00000770: 5045 0393 5457 e83f 74d8 0607 4b10 b03f
00000780: 0b3a 4dcf ead8 d2bf 90ee b475 41ba d33f
00000790: dad5 8484 7873 b83f 8312 0f03 edf3 973f
000007a0: 3ea2 4de6 e23e d9bf 8b79 a8fc 52ac a5bf
000007b0: 9959 b5bd 28de c1bf 1fde 7a7e fb96 d73f
000007c0: b85e 4796 97f0 d13f 31f4 89d3 122e a8bf
000007d0: 77fc 58ea ef71 e13f b9b3 cc14 56d7 b93f
000007e0: e624 a270 81e9 86bf 8db0 5fcf 2b85 efbf
000007f0: 5b31 dd83 0988 e9bf 731e 5feb 6f93 abbf

bh f8 [100, 1]
-0.4322340195917939 0.8315410556040599 -0.41595793154244437 0.05858733636105538 0.06762295895882192 0.20102079386570237 0.5667062143330979 0.5375840482951351
-0.1707724480821865 0.3938980767412659 -0.20188148099628972 -0.33217390239284367 -0.11448161370870065 -0.028459592725425656 -0.37658771296813764 0.0564595243552558
0.6114033329002215 -0.1345168434008633 -0.20006732409778302 -0.06537771958784473 0.30186674310898715 0.4977433795786539 0.246238012631557 -0.34430358580111103
0.7401358491867971 -0.017422679690648007 -0.326510122009327 -0.23794502645790852 0.5853529902254518 0.17496799636076868 -0.11732548773763066 0.010675430236886772
0.591821799012519 -0.0409668492431274 0.4939561620125315 -0.11597462132361339 -0.08746181386373282 0.040352286054144745 -0.6208341286082633 0.06670560365365633
0.5081433483799266 -0.7090986235889616 0.029198478095772536 -0.5951803865643309 0.07213961051071163 -0.3362435123623673 0.007775522903746254 0.0700215423775697
0.6751130718665399 -0.07030570505320809 -0.2362125049274978 -0.10897829470527935 0.040498726778442136 0.10934193819133128 -0.4245009283161141 0.37799685784806464
-0.17263182551474557 0.20282930805911506 0.5702343149742544 -0.20524233525002772 0.07530678977156836 -0.5163884300466448 0.10211161081758656 -0.13401205418892692
0.045158835672601164 -0.6332670305570564 0.217802101850872 0.009102499405129192 0.1616611210624736 -0.7552059805865368 -0.17658855603401685 -0.33973644662343666
0.23452349911525497 0.5541023185656722 -0.41036419585444195 0.35287983692408026 -0.01325825689391706 0.05805552841057846 -0.1355414490525984 0.5385105961179769
0.41688587117489634 0.29767255714142876 0.2592673829906276 0.10129309439816053 0.1795975115466138 -0.5158155701965417 -0.15093552142593855 -0.32117175680962684
-0.2583206173022585 -0.3668772646757872 0.2831643796408706 -0.31273258740172594 -0.5425956675689254 -0.6743359597796326 0.4374699285260142 0.018585853496922673
0.0463760734145768 -0.0022919034650822298 0.08407666167697882 -0.055028627354562286
00000000: 5b62 97e0 b8a9 dbbf 6239 e3fc fb9b ea3f
00000010: 8b24 1f04 0e9f dabf ddce 42cb 28ff ad3f
00000020: 0cd8 2ffd bc4f b13f 140d bca3 0cbb c93f
00000030: 1805 2012 7522 e23f aaec 4876 e333 e13f
00000040: 9411 c91f dfdb c5bf 01e8 6347 a035 d93f
00000050: b207 469b 40d7 c9bf 592a d753 5642 d5bf
00000060: d546 dfc2 aa4e bdbf c47f 0df0 8224 9dbf
00000070: 7082 d159 031a d8bf af9c 4e45 43e8 ac3f
00000080: 6a19 efb8 9d90 e33f 7b7c 9511 d937 c1bf
00000090: 5fc5 ff5a ce9b c9bf 6550 841f 98bc b0bf
000000a0: efcc 59e3 c851 d33f 34d0 450c 07db df3f
000000b0: dd6c a429 ba84 cf3f c552 3ae8 1109 d6bf
000000c0: ea57 5b60 31af e73f 7889 eb3d 40d7 91bf
000000d0: 31f4 f5b5 8ae5 d4bf 1df8 708d fb74 cebf
000000e0: bd4a b431 36bb e23f c1aa 1bef 5965 c63f
000000f0: f203 d20c 0b09 bebf 7fbf e7fd ffdc 853f
00000100: 6a32 fa44 34f0 e23f 7b54 705b 9bf9 a4bf
00000110: 9518 604e fa9c df3f 3a3b c045 83b0 bdbf
00000120: ed8d 31be e563 b6bf 3ec0 d709 0ea9 a43f
00000130: ea9e d388 dfdd e3bf 2a03 2752 9e13 b13f
00000140: 5318 dfd6 b542 e03f a680 be98 efb0 e6bf
00000150: b2a8 0eb2 34e6 9d3f 4976 f0bc b70b e3bf
00000160: 5ac2 e3d3 bd77 b23f a1aa 4582 0385 d5bf
00000170: 6352 4b09 3ad9 7f3f a5f2 868a eeec b13f
00000180: b89a 98ba 869a e53f fffd ecff 8dff b1bf
00000190: 94f0 c81b 363c cebf 83a7 bb63 00e6 bbbf
000001a0: 710a 16c6 3fbc a43f f6ee 9c50 d5fd bb3f
000001b0: 8451 0ff1 052b dbbf 49af 9cbb 1931 d83f
000001c0: 85d4 6ab6 cc18 c6bf f160 648e 4ff6 c93f
000001d0: 64e2 bb08 5c3f e23f 1aa7 d37e 6145 cabf
000001e0: 7952 3c47 4e47 b33f f2a8 6207 4186 e0bf
000001f0: bfdf 008d fc23 ba3f b06f 0197 4e27 c1bf
00000200: 82b3 ad14 0f1f a73f 3715 3c38 b943 e4bf
00000210: 108b 3974 f0e0 cb3f ff1b 0eca 54a4 823f
00000220: 26bf ffc5 4fb1 c43f f29b 8bbb a52a e8bf
00000230: a2c9 812c 749a c6bf 3771 e0ef 3dbe d5bf
00000240: f9f7 6bb3 dd04 ce3f 2213 1cc9 34bb e13f
00000250: 083a 2930 6843 dabf 656e c04f 9595 d63f
00000260: 9739 171e 2527 8bbf cd38 c047 74b9 ad3f
00000270: 5a78 7715 6c59 c1bf a109 dc92 7a3b e13f
00000280: df14 b713 42ae da3f 45b4 7532 110d d33f
00000290: e94f b738 d697 d03f 8430 c01f 58ee b93f
000002a0: 7291 441f 0dfd c63f 2a60 98a7 8f81 e0bf
000002b0: 6320 2aec da51 c3bf 8c5b f9fb 138e d4bf
000002c0: e086 cc32 5388 d0bf 986b 5bc7 ea7a d7bf
000002d0: 5ac7 7c7d 5d1f d23f 002b d28a cf03 d4bf
000002e0: 441d e596 f15c e1bf 3ea6 b801 2994 e5bf
000002f0: 0c2c 00df 81ff db3f e507 c083 2b08 933f
00000300: 5bd7 43cd 9abe a73f f522 b34d 78c6 62bf
00000310: 516d 4250 0c86 b53f 93c9 a955 b62c acbf

by f8 [20, 1]
-1.3091474877276346 -0.8636628120100235 -0.800767741218202 1.1867350343091487 0.5870435541121323 -0.8984816674161621 -1.0282420869775464 -0.005136013336537848
-0.41476601475588604 -0.3253896558264304 -0.7560374029689804 -0.21497050983767055 1.6248350531252544 -1.287720311835841 0.3610483182160717 -0.7592363311094866
1.009272251428664 -0.8197321357972098 -0.9737569906153568 -0.8781837000228107
00000000: 5ce4 d6a2 44f2 f4bf a157 8b31 20a3 ebbf
00000010: c12a 87ab e39f e9bf f300 16e0 ddfc f23f
00000020: a5a7 4790 0fc9 e23f 7374 33a0 5cc0 ecbf
00000030: 9307 7ff9 ad73 f0bf c0f9 fe14 8009 75bf
00000040: 289a 37c1 868b dabf 38cc 8e22 2fd3 d4bf
00000050: d3be 095a 7531 e8bf 15ba ad56 2784 cbbf
00000060: 0814 690a 53ff f93f 80ad 1b9d 809a f4bf
00000070: 93e2 c067 6a1b d73f d59b 81fd a94b e8bf
00000080: a957 0aa9 fa25 f03f fe55 57e3 3e3b eabf
00000090: 0138 9e6b 0429 efbf cb4d efb3 141a ecbf
